torsion-fm/output/20250509_204937/checkpoints/best_model.pth (torch, 945890 bytes, 20 tensors)

0.weight f4 [640]
0	0x3f803274	1.0015397
1	0x3f7fe6c5	0.999615
2	0x3f7fd064	0.99927354
3	0x3f803254	1.0015359
4	0x3f7fb02c	0.9987819
5	0x3f801da5	1.0009047
6	0x3f802697	1.0011777
7	0x3f7fa0d3	0.99854773
8	0x3f802f93	1.0014518
9	0x3f7fbb6f	0.99895376
10	0x3f802b0b	1.0013136
11	0x3f7ff5e1	0.99984556
12	0x3f7fad64	0.9987395
13	0x3f8032ab	1.0015463
14	0x3f7fb4c8	0.99885225
15	0x3f7fa7d8	0.99865484
16	0x3f7fb637	0.9988741
17	0x3f7fed06	0.99971044
18	0x3f7fce83	0.99924487
19	0x3f7fd281	0.9993058
20	0x3f7fa43d	0.9985998
21	0x3f803052	1.0014746
22	0x3f7fa456	0.9986013
23	0x3f7fa642	0.99863064
24	0x3f801c62	1.0008662
25	0x3f7fab2c	0.9987056
26	0x3f7fbabe	0.9989432
27	0x3f7f9cc0	0.99848557
28	0x3f7fa312	0.998582
29	0x3f80270d	1.0011917
30	0x3f7fb5e1	0.998869
31	0x3f7fa07e	0.99854267
32	0x3f7f9c12	0.9984752
33	0x3f7fb26d	0.9988163
34	0x3f8006d8	1.0002089
35	0x3f7ff22e	0.9997891
36	0x3f7fe972	0.99965584
37	0x3f803255	1.001536
38	0x3f7f9d34	0.9984925
39	0x3f801a5e	1.0008047
40	0x3f7fe0b5	0.9995225
41	0x3f802ffc	1.0014644
42	0x3f8024a6	1.0011184
43	0x3f800508	1.0001535
44	0x3f7fbbe2	0.9989606
45	0x3f7fb4fc	0.99885535
46	0x3f803176	1.0015094
47	0x3f8028d0	1.0012455
48	0x3f8023c2	1.0010912
49	0x3f7ff1c6	0.9997829
50	0x3f7fd44c	0.99933314
51	0x3f7f9acf	0.99845594
52	0x3f7fee01	0.9997254
53	0x3f801e19	1.0009185
54	0x3f7fa328	0.9985833
55	0x3f80149b	1.0006288
56	0x3f7f9927	0.99843067
57	0x3f7f9d25	0.9984916
58	0x3f7fa42b	0.99859875
59	0x3f7fca84	0.9991839
60	0x3f7f9e5b	0.99851006
61	0x3f80344c	1.001596
62	0x3f7fcd5e	0.9992274
63	0x3f801f09	1.0009471
64	0x3f7fae52	0.99875367
65	0x3f80196c	1.0007758
66	0x3f8007fc	1.0002437
67	0x3f7ff5e8	0.999846
68	0x3f7fa1df	0.9985637
69	0x3f800677	1.0001973
70	0x3f7fba19	0.9989334
71	0x3f803109	1.0014964
72	0x3f802331	1.001074
73	0x3f8029d3	1.0012764
74	0x3f802edc	1.00143
75	0x3f80176b	1.0007147
76	0x3f7fa4f6	0.99861085
77	0x3f80344b	1.0015959
78	0x3f7fa740	0.9986458
79	0x3f800fe9	1.0004855
80	0x3f7fc969	0.999167
81	0x3f8008e6	1.0002716
82	0x3f8030e3	1.0014919
83	0x3f7fb6b3	0.9988815
84	0x3f80326f	1.0015391
85	0x3f7fd118	0.99928427
86	0x3f7fa56f	0.99861807
87	0x3f801eb8	1.0009375
88	0x3f8011e4	1.000546
89	0x3f7f97d1	0.9984103
90	0x3f7fa7da	0.99865496
91	0x3f8034cb	1.0016111
92	0x3f80167c	1.0006862
93	0x3f800ac4	1.0003285
94	0x3f80199a	1.0007813
95	0x3f7fb241	0.9988137
96	0x3f7fb611	0.99887186
97	0x3f801cb6	1.0008762
98	0x3f7fb5f0	0.9988699
99	0x3f803114	1.0014977
100	0x3f7fe2c4	0.9995539
101	0x3f7fdbe9	0.9994493
102	0x3f800383	1.0001072
103	0x3f8032a8	1.0015459
104	0x3f8031c3	1.0015186
105	0x3f8032ad	1.0015465
106	0x3f7faf7c	0.9987714
107	0x3f803040	1.0014725
108	0x3f80332a	1.0015614
109	0x3f7fc1a9	0.99904877
110	0x3f7fbe64	0.9989989
111	0x3f7fb637	0.9988741
112	0x3f80230e	1.0010698
113	0x3f802f71	1.0014478
114	0x3f7fa63e	0.9986304
115	0x3f8030aa	1.0014851
116	0x3f7fb9d6	0.9989294
117	0x3f7fb128	0.99879694
118	0x3f8030e8	1.0014925
119	0x3f802a99	1.0013
120	0x3f7fa4fb	0.99861115
121	0x3f8017a6	1.0007217
122	0x3f7fed1c	0.99971175
123	0x3f802660	1.0011711
124	0x3f7fd81d	0.9993914
125	0x3f7fa5d1	0.9986239
126	0x3f7fcd62	0.99922764
127	0x3f7fad22	0.99873555
128	0x3f800f1e	1.0004613
129	0x3f80317b	1.00151
130	0x3f7fdfc7	0.9995083
131	0x3f8030d1	1.0014898
132	0x3f802f07	1.0014352
133	0x3f7fab07	0.9987034
134	0x3f8005c7	1.0001763
135	0x3f8011eb	1.0005468
136	0x3f801fff	1.0009764
137	0x3f8008bb	1.0002664
138	0x3f80226c	1.0010505
139	0x3f7ff6c4	0.9998591
140	0x3f7f9e1f	0.9985065
141	0x3f7f9a58	0.99844885
142	0x3f801ccc	1.0008788
143	0x3f7feccf	0.99970716
144	0x3f802dc1	1.0013963
145	0x3f7f9cbc	0.9984853
146	0x3f7f9ba5	0.9984687
147	0x3f802cc5	1.0013663
148	0x3f80111b	1.000522
149	0x3f8020a5	1.0009962
150	0x3f802ed5	1.0014292
151	0x3f80316c	1.0015082
152	0x3f7ff11e	0.9997729
153	0x3f7fcf6d	0.9992588
154	0x3f7fae87	0.9987568
155	0x3f7fa588	0.99861956
156	0x3f802e6b	1.0014166
157	0x3f802df6	1.0014026
158	0x3f7f9c8d	0.9984825
159	0x3f7fa662	0.99863255
160	0x3f7fd9d8	0.9994178
161	0x3f7fc5de	0.99911296
162	0x3f7fd3ae	0.9993237
163	0x3f802ca1	1.001362
164	0x3f7f9dea	0.9985033
165	0x3f800633	1.0001892
166	0x3f80269f	1.0011786
167	0x3f80229f	1.0010566
168	0x3f8032dc	1.0015521
169	0x3f7fbb42	0.9989511
170	0x3f7f9b6a	0.9984652
171	0x3f803118	1.0014982
172	0x3f803306	1.0015571
173	0x3f800507	1.0001534
174	0x3f80334c	1.0015655
175	0x3f7fa03c	0.99853873
176	0x3f8033d2	1.0015814
177	0x3f7fdf82	0.9995042
178	0x3f8026d0	1.0011845
179	0x3f801016	1.0004909
180	0x3f7fe4bc	0.99958396
181	0x3f8027dc	1.0012164
182	0x3f802d8d	1.0013901
183	0x3f7fd3de	0.9993266
184	0x3f7ff40b	0.99981755
185	0x3f7fb232	0.9988128
186	0x3f7fa747	0.9986462
187	0x3f7f9cae	0.9984845
188	0x3f7fb6cf	0.9988832
189	0x3f801e13	1.0009178
190	0x3f7fb7bc	0.9988973
191	0x3f7fa312	0.998582
192	0x3f801f63	1.0009578
193	0x3f800d2f	1.0004023
194	0x3f7f9f8f	0.9985284
195	0x3f801f2e	1.0009515
196	0x3f7fa52c	0.9986141
197	0x3f7fd0d6	0.99928033
198	0x3f8027aa	1.0012105
199	0x3f7f9f00	0.9985199
200	0x3f7fb6e9	0.99888474
201	0x3f7fbafc	0.9989469
202	0x3f7fb493	0.9988491
203	0x3f802fa7	1.0014542
204	0x3f80327f	1.001541
205	0x3f803100	1.0014954
206	0x3f7fc637	0.99911827
207	0x3f7fa02f	0.99853796
208	0x3f7fd2a5	0.99930793
209	0x3f801103	1.0005192
210	0x3f7fabfb	0.99871796
211	0x3f801e1e	1.0009191
212	0x3f7f9d36	0.9984926
213	0x3f7f989d	0.99842244
214	0x3f7fa6cb	0.9986388
215	0x3f8033ac	1.0015769
216	0x3f7ff62f	0.9998502
217	0x3f7fa5c6	0.99862325
218	0x3f801dea	1.0009129
219	0x3f7faf22	0.99876606
220	0x3f800213	1.0000633
221	0x3f801fdc	1.0009723
222	0x3f80292b	1.0012563
223	0x3f7fd7ac	0.99938464
224	0x3f8012bf	1.0005721
225	0x3f7fac93	0.998727
226	0x3f7fc17f	0.99904627
227	0x3f802ed1	1.0014287
228	0x3f803233	1.001532
229	0x3f7f9a7a	0.9984509
230	0x3f7fb109	0.9987951
231	0x3f7f9eb7	0.99851555
232	0x3f80315f	1.0015067
233	0x3f8018d1	1.0007573
234	0x3f8028f9	1.0012504
235	0x3f800af7	1.0003346
236	0x3f80286d	1.0012337
237	0x3f802996	1.0012691
238	0x3f801ecc	1.0009398
239	0x3f802b6b	1.001325
240	0x3f800acd	1.0003296
241	0x3f7faa94	0.99869657
242	0x3f7fd56e	0.9993504
243	0x3f7fdce3	0.9994642
244	0x3f7fa0c2	0.9985467
245	0x3f7fdfc8	0.9995084
246	0x3f80161f	1.0006751
247	0x3f7fb127	0.9987969
248	0x3f8031ff	1.0015258
249	0x3f7fc803	0.9991457
250	0x3f7f9f2e	0.99852264
251	0x3f7fe975	0.999656
252	0x3f7fa737	0.99864525
253	0x3f802a3f	1.0012892
254	0x3f8017c9	1.0007259
255	0x3f800165	1.0000426

0.bias f4 [640]
0	0x3acdd252	0.0015702939
1	0x3acdcc08	0.0015701065
2	0xb9d530a9	-0.0004066278
3	0xbac3f5cb	-0.0014950571
4	0x3aab6a2e	0.0013077909
5	0x3acc4fb2	0.0015587716
6	0x3acfc12c	0.0015850416
7	0xbac2c2dd	-0.0014859099
8	0xbabca4e6	-0.0014392405
9	0x3ac66445	0.0015136084
10	0xbac8c57b	-0.0015317643
11	0x3a114824	0.0005542061
12	0xbaa8b109	-0.0012870143
13	0x3acd1ce8	0.0015648874
14	0xba79052a	-0.00094993657
15	0xbacc26af	-0.0015575493
16	0x3ad0b58e	0.0015923248
17	0xb9486fad	-0.00019115089
18	0xbaa6fb42	-0.0012739676
19	0xbad0422a	-0.0015888859
20	0x3ad33036	0.001611239
21	0xbacaa2ec	-0.0015459931
22	0x3ace9fa6	0.0015764132
23	0xbab1b2b2	-0.0013557284
24	0xbabe7a59	-0.0014532312
25	0x3aa75db1	0.0012769011
26	0x3a2ef627	0.0006674253
27	0x3abca6b3	0.0014392942
28	0x3acff7ac	0.0015866659
29	0x3ac5997e	0.0015075651
30	0xba9d1df1	-0.0011987073
31	0xbac23ca2	-0.0014819095
32	0x3ac8745a	0.0015293465
33	0xbacc1168	-0.0015569152
34	0x3a94c4eb	0.001135019
35	0x3ab04dab	0.0013450881
36	0xb9f9e0dc	-0.00047660514
37	0xbacb794d	-0.0015523821
38	0x3ad55a0a	0.0016277444
39	0x3aa87c5e	0.0012854447
40	0x3a1c1657	0.00059542566
41	0xbac5ce1e	-0.0015091335
42	0xbaa91dc8	-0.0012902552
43	0xb9fb2677	-0.0004790311
44	0xbacd69d4	-0.0015671798
45	0x3ac6a1b8	0.0015154397
46	0xbacc1a5b	-0.0015571819
47	0x3ab43070	0.0013747346
48	0xbaa2a267	-0.0012408019
49	0xbac6d4e7	-0.0015169651
50	0x3abe01ff	0.0014496444
51	0xbad070d4	-0.0015902766
52	0x3a8aebba	0.0010598816
53	0x3ac98112	0.0015373549
54	0x3ac621ce	0.0015116276
55	0xbac8790d	-0.0015294865
56	0xbad04720	-0.0015890338
57	0x3ac90741	0.0015337245
58	0xbaaab888	-0.0013024965
59	0x3ab6382d	0.001390224
60	0x3ac52f1a	0.0015043945
61	0x3ace6173	0.0015745595
62	0xba457db0	-0.00075336825
63	0x3ad49a0c	0.0016220226
64	0xbacdc7d0	-0.0015699808
65	0xbacb70a0	-0.0015521236
66	0x3a888f20	0.0010418631
67	0x3a69a2c3	0.0008912498
68	0x3ac91797	0.0015342113
69	0x3a7e9584	0.00097116106
70	0x3ad2a46a	0.0016070728
71	0x3acb35f0	0.0015503746
72	0xbac7ea74	-0.0015252368
73	0xbacb73a3	-0.0015522133
74	0x3ac01af6	0.0014656472
75	0xbaabf15b	-0.0013118194
76	0xbaca5f37	-0.0015439753
77	0x3aceb817	0.0015771416
78	0xbac89ad1	-0.0015304928
79	0x3acf2380	0.0015803427
80	0xbacae643	-0.001548
81	0xbace8b83	-0.001575813
82	0x3ababa1f	0.0014246142
83	0x3ac3149b	0.001488346
84	0x3ac94581	0.0015355797
85	0x3a8974e7	0.001048711
86	0x3ab569e3	0.0013840761
87	0x37ff1b52	3.041109e-05
88	0xba790e05	-0.0009500685
89	0x3ad1a2bd	0.0015993934
90	0x3aa48055	0.0012550453
91	0x3ad4ee88	0.0016245404
92	0x3a6891d7	0.00088718295
93	0x3a8c8188	0.0010719756
94	0xbad49630	-0.0016219076
95	0xbab7533c	-0.0013986598
96	0x3a3253c1	0.00068026414
97	0xb94fcb94	-0.00019816897
98	0x3a85829a	0.0010186017
99	0x3ad199de	0.001599129
100	0x3a8129aa	0.0009854336
101	0xba2b3d89	-0.0006532302
102	0xbab9130c	-0.0014120056
103	0xbacb704d	-0.0015521139
104	0xbad4b454	-0.0016228058
105	0xbac6900c	-0.001514913
106	0x3ab6e621	0.0013954082
107	0xbacb587c	-0.0015514041
108	0x3ad36e79	0.0016130946
109	0x3a264534	0.00063427095
110	0xb9f4484b	-0.0004659317
111	0x3a814a29	0.000986402
112	0x3ac5f0b8	0.0015101647
113	0xbaceeb29	-0.0015786636
114	0xbabc9b7f	-0.0014389603
115	0xbace28cf	-0.0015728715
116	0x3ab06c7e	0.0013460068
117	0x3aa8834e	0.0012856515
118	0xbaca2558	-0.0015422506
119	0x3ad46eb3	0.0016207307
120	0x3ab242d6	0.0013600241
121	0x3ad051d6	0.001589353
122	0x399caaad	0.00029881802
123	0x3acf103c	0.0015797685
124	0xbad18f70	-0.0015988182
125	0x3ac1cc6c	0.0014785654
126	0x3ac7c1b2	0.0015240221
127	0xb7d3907f	-2.5220446e-05
128	0x3827380f	3.986811e-05
129	0x3ab402c4	0.0013733734
130	0xbaae820e	-0.0013313906
131	0x3ac9639e	0.0015364771
132	0x3abb32c7	0.0014282101
133	0x3ab7b61d	0.0014016066
134	0x3a9c8864	0.0011942503
135	0xbaccec7c	-0.0015634443
136	0x3acf53e5	0.0015817849
137	0xbaa789c7	-0.001278215
138	0xbac89525	-0.0015303238
139	0xba575802	-0.00082147133
140	0x3accdafb	0.0015629226
141	0xbacac9d2	-0.0015471524
142	0xbacefedf	-0.001579251
143	0x3a510997	0.0007974146
144	0xbac2cf2d	-0.0014862769
145	0x3ac69dd7	0.0015153241
146	0xbac96c16	-0.0015367295
147	0xbab09535	-0.0013472202
148	0xbac666a6	-0.0015136793
149	0x3a870137	0.0010300045
150	0xbacca517	-0.0015613165
151	0xbad5c163	-0.0016308244
152	0xba9c06ab	-0.0011903843
153	0xbabebf1d	-0.0014552806
154	0xba04c2a8	-0.00050644064
155	0x3ac89f0d	0.001530619
156	0xbabec430	-0.0014554318
157	0x3ac3975d	0.0014922429
158	0x3ac6fd3a	0.0015181669
159	0xbac45e29	-0.0014981675
160	0xba798add	-0.00095192884
161	0x3aa91481	0.0012899787
162	0x3ac99f28	0.0015382515
163	0xbaced185	-0.0015778994
164	0x3acc2133	0.0015573859
165	0x3a4c243d	0.00077873823
166	0xbacf67a3	-0.0015823733
167	0xbad0c4ec	-0.0015927828
168	0xbacce1a8	-0.0015631216
169	0x3a659b42	0.0008758792
170	0xbac9d243	-0.0015397746
171	0x3acbc35d	0.0015545894
172	0x3ace90ec	0.0015759743
173	0xba9189e2	-0.0011103714
174	0xbacc9305	-0.001560778
175	0xbabd2834	-0.0014431537
176	0xbad1efe4	-0.0016016928
177	0x3a74e2ee	0.00093416765
178	0xbab9924b	-0.0014157979
179	0x3ac1296b	0.0014737075
180	0x3a910432	0.0011063872
181	0xbad299c5	-0.0016067555
182	0xbac762f9	-0.0015211991
183	0x3a928b37	0.0011180405
184	0xbad23d65	-0.0016040026
185	0xbaaaa6a9	-0.0013019639
186	0x3ad54e3f	0.001627393
187	0x3ad290cc	0.0016064881
188	0x3ac2d4d5	0.0014864454
189	0x3ab25d8a	0.0013608199
190	0x3aa2b87c	0.00124146
191	0x3ac3bcc6	0.0014933578
192	0xbabfe1a9	-0.0014639396
193	0x3ad6adbd	0.0016378682
194	0x3ac44c64	0.001497638
195	0x3ac27509	0.0014835905
196	0x3a9a9711	0.0011794289
197	0x3a94959c	0.0011336091
198	0x3ad2101e	0.0016026532
199	0xbac6e983	-0.0015175793
200	0x3a96f22d	0.0011516266
201	0x3ab2978d	0.0013625488
202	0xbac3f733	-0.001495099
203	0xbabbe930	-0.0014336463
204	0xbaca7651	-0.0015446638
205	0xbac1bfb7	-0.0014781867
206	0x3aaeb9bb	0.0013330498
207	0xbac56309	-0.0015059422
208	0x3aa00083	0.0012207184
209	0xbacf155a	-0.001579921
210	0x3acba050	0.0015535448
211	0x3abec61b	0.001455489
212	0xbacc5757	-0.0015589994
213	0xbacd98b6	-0.001568577
214	0xb8af6dca	-8.3651e-05
215	0xbad08d23	-0.0015911203
216	0xba1aed95	-0.0005910036
217	0x3ab71be0	0.0013970099
218	0x3ad308f9	0.0016100697
219	0xbacc467d	-0.0015584972
220	0xb9aab7c0	-0.0003256183
221	0xba8e1851	-0.0010840987
222	0x3a7eca52	0.0009719479
223	0xb9e18648	-0.00043015392
224	0xba97c934	-0.0011580349
225	0xbad4f90a	-0.0016248536
226	0x3ac95403	0.001536012
227	0xbac56e50	-0.0015062783
228	0xbacd8c0f	-0.0015682
229	0x3ad1ff19	0.001602146
230	0xbacafbdb	-0.0015486436
231	0x3ac639be	0.001512341
232	0xbaca12f7	-0.0015417029
233	0xbac13b0e	-0.0014742331
234	0x3ac3a9bf	0.0014927908
235	0x3a512022	0.00079775054
236	0xbad2138d	-0.0016027555
237	0xba26050f	-0.0006333151
238	0xbad0ccf4	-0.0015930221
239	0x3abc18f5	0.00143507
240	0x3a4712e2	0.00075940613
241	0xbac15786	-0.0014750815
242	0xba75b249	-0.0009372575
243	0xbad19630	-0.0015990194
244	0x3ac16ded	0.0014757492
245	0xba9cd67e	-0.0011965779
246	0x3aa122bc	0.0012293677
247	0x3ac9594a	0.0015361693
248	0xbad08a50	-0.0015910361
249	0x3a8e39d4	0.0010850974
250	0xbac2ac7a	-0.0014852427
251	0x3ac1e3cf	0.0014792624
252	0x3ab7dd85	0.001402781
253	0xbacb8a1f	-0.0015528834
254	0x3ab52dc2	0.0013822841
255	0x39c346cc	0.00037246046

1.weight f4 [256, 640]
0	0xbd11fc6e	-0.035641126
1	0xbbb7ca99	-0.0056088683
2	0xbd4d115e	-0.05006539
3	0xbc429075	-0.011875262
4	0xbc1a9a5f	-0.009436219
5	0x3d2f53cf	0.042804535
6	0xbcbd2545	-0.02308906
7	0x3d03cca4	0.032177582
8	0x3d2cdd5a	0.042203285
9	0x3d8a3510	0.06748402
10	0x3cf2e322	0.029649321
11	0x3d322a02	0.043497093
12	0x3dc9dbaf	0.098563544
13	0x3d9a1326	0.075231835
14	0xbcba77a7	-0.022762133
15	0x3da60f53	0.081083916
16	0xbd3eeb37	-0.046611037
17	0xbc1ad9be	-0.009451328
18	0x3cba5534	0.022745706
19	0xbd13bac6	-0.036066793
20	0x3cb8ad41	0.022543551
21	0xbd8548f0	-0.06508052
22	0x3d2de28b	0.042452376
23	0x3d041296	0.032244287
24	0x3a94586c	0.0011317856
25	0xbc55e047	-0.01305396
26	0x3c3334dd	0.010937897
27	0xbd050973	-0.032479715
28	0x3d8e1b27	0.06938773
29	0xbd64f057	-0.05589327
30	0xbc0d73a8	-0.008633532
31	0xbd182d75	-0.037152726
32	0x3db53e45	0.088497676
33	0x3be77987	0.0070640477
34	0x3d931372	0.07181443
35	0xbd2c4a9c	-0.04206334
36	0x3d02e581	0.031957153
37	0x3d898298	0.06714362
38	0xbc877647	-0.016535891
39	0xbceae112	-0.028671775
40	0x3d3a9ccd	0.045559693
41	0x3bc008d2	0.0058604265
42	0x3d374464	0.044742957
43	0x3dcd227e	0.100163445
44	0x3c3b90c6	0.011448091
45	0xbd4f8e30	-0.05067271
46	0xbbdf45f9	-0.0068137613
47	0x3d2dbd53	0.04241688
48	0xbd0493b3	-0.03236742
49	0xbd39877d	-0.045295227
50	0x3d734f4a	0.059401788
51	0x3dbdc72b	0.09266504
52	0xbd1f71ec	-0.038927004
53	0x3d0aeee5	0.033919234
54	0x3d022512	0.031773634
55	0x3c9311cc	0.017952822
56	0xbcd54d5c	-0.026037864
57	0xbe043730	-0.12911677
58	0xbd0f0f20	-0.034926534
59	0xbcf2c4dc	-0.029634885
60	0xbd2ba5cb	-0.04190616
61	0xbdbc435f	-0.091925375
62	0xbd3e26c8	-0.046423703
63	0xbaa90433	-0.0012894928
64	0xbcdc5a99	-0.02689867
65	0xbd229648	-0.0396941
66	0xbd9dd091	-0.077057965
67	0x3d20e5c9	0.03928164
68	0x3c9aff75	0.01892064
69	0xbdb61088	-0.08889872
70	0x3d4605d3	0.0483454
71	0x3d7ce198	0.06173858
72	0xbc69bb25	-0.01426581
73	0xbb10f47b	-0.0022118378
74	0x3c80f8dc	0.015743665
75	0xbc5cb7cd	-0.013471556
76	0xbd07543b	-0.033039313
77	0xbd0d8e87	-0.034559753
78	0x3dc5951e	0.096475825
79	0x3c280ad5	0.010256489
80	0x3dc28f95	0.09500042
81	0x3d4163ff	0.047214504
82	0xbdbf3453	-0.09336152
83	0x3d67fb9f	0.05663645
84	0x3d3cb3ba	0.046069838
85	0x3d212ff3	0.03935237
86	0x3d792542	0.060826547
87	0xbd3bda63	-0.045862567
88	0xbcf8c3f8	-0.030366883
89	0xbdec4b3b	-0.115377866
90	0xbd3226ef	-0.04349416
91	0x3cfcc496	0.030855458
92	0x3d9754c3	0.07389214
93	0xbd11dbac	-0.035609886
94	0x3b4e033e	0.0031435038
95	0xbd4a8d80	-0.04945135
96	0xbce225cd	-0.027605915
97	0x3de29863	0.11064222
98	0xbdc00e1f	-0.093776934
99	0x3d303d0f	0.04302698
100	0x3de561c0	0.11200285
101	0x3d4056e7	0.046957877
102	0xbdf6da66	-0.12053375
103	0x3c651420	0.013981849
104	0x3d67652f	0.05649298
105	0x3d8bbe1c	0.0682337
106	0x3dbca680	0.09211445
107	0x3da2a8fe	0.07942389
108	0xbc313b9f	-0.010817437
109	0xbcaa7d0f	-0.020811586
110	0xbce971eb	-0.028496703
111	0xbdfc3f08	-0.1231671
112	0x3d06f144	0.032944933
113	0xbddc3780	-0.10752773
114	0x3cb9fdd8	0.02270405
115	0x3db43c02	0.08800508
116	0x3d92f1a3	0.07174995
117	0xbdbe2bd4	-0.09285703
118	0xbd4d49e4	-0.050119296
119	0xbd8da843	-0.06916859
120	0xbc829552	-0.015940342
121	0xbdd96d34	-0.10616532
122	0xbd9c9c07	-0.07646947
123	0x3ce7d24e	0.028298523
124	0xbd3c9ea1	-0.046049718
125	0x3ce16e87	0.027518524
126	0xbca586ca	-0.020205874
127	0x3cac97ed	0.021068538
128	0xbdae038d	-0.08496771
129	0xbc406840	-0.011743605
130	0xbc6630ba	-0.014049703
131	0xbb8e6865	-0.004345941
132	0xbd2706b9	-0.040777896
133	0x3cc4a50e	0.024004485
134	0x3de3c7be	0.11122082
135	0xbdd77e2d	-0.10522113
136	0xbcaaa85e	-0.020832237
137	0x3c8dcba9	0.017309027
138	0x3cc8fec8	0.024535552
139	0x3cbe5265	0.023232648
140	0x3d715908	0.058922797
141	0x3b529d55	0.0032137234
142	0x3d34cda6	0.044141434
143	0xbabbd010	-0.0014328975
144	0xbd53c679	-0.05170295
145	0xbce320fb	-0.027725687
146	0xbb8d631e	-0.004314794
147	0x3d28498b	0.04108576
148	0x3d352291	0.04422242
149	0x3d2520d9	0.04031453
150	0x3d75600a	0.059906043
151	0x3d93d9fa	0.0721931
152	0xbcbbc88e	-0.02292278
153	0xbc7ef39f	-0.0155610135
154	0xbdd87f73	-0.10571184
155	0xbd8bf338	-0.068335
156	0x3bddb233	0.006765628
157	0xbcbe8963	-0.02325887
158	0xbd52e591	-0.051488463
159	0x3dbeb24c	0.09311351
160	0xbcce1a9a	-0.025159169
161	0xbdc2e819	-0.09516925
162	0x3bd4fdf4	0.0065
163	0xbcfb237b	-0.030656567
164	0x3d55fca5	0.052242894
165	0x3d4a0b74	0.04932733
166	0xbd3df165	-0.04637279
167	0x3d914d2b	0.07094797
168	0xbd8291fd	-0.06375501
169	0x3be93742	0.007117183
170	0xbc43f7c3	-0.0119609265
171	0x3d45360d	0.04814725
172	0xbce095a5	-0.027415106
173	0xbd62697d	-0.055276383
174	0x3dd3c439	0.10340161
175	0xbdc1b857	-0.09458988
176	0x3d85da5f	0.065357916
177	0xbd1784f8	-0.036992043
178	0xbd385c74	-0.045010045
179	0xbd5bbf0b	-0.05364899
180	0x3bf00338	0.0073246025
181	0xbc5ba035	-0.013404896
182	0xbd3351d7	-0.04377922
183	0x3e2f59cb	0.17124097
184	0x3ced87b7	0.028995378
185	0xbc868a86	-0.016423475
186	0x3c431785	0.011907463
187	0x3c22d0b0	0.00993745
188	0xbcab0e42	-0.020880822
189	0xbda12473	-0.0786828
190	0x3d04c0f5	0.03241058
191	0x3c12e33e	0.008965312
192	0x3d4b9854	0.04970582
193	0x3c1d364a	0.009595463
194	0x3dc63932	0.09678878
195	0xbd76b746	-0.060233377
196	0xbc9f04df	-0.019411502
197	0x3cf1326f	0.029442994
198	0x3d1045f3	0.03522296
199	0xbd3e2e0a	-0.046430625
200	0x3c4901b9	0.012268477
201	0xbcc1b6e9	-0.023646789
202	0x3e0e4ae5	0.13895757
203	0x3c5fe6e3	0.0136658875
204	0xbd3d5066	-0.046219252
205	0xbc7eac95	-0.015544076
206	0xbd42036e	-0.047366552
207	0xbd156ad7	-0.036478844
208	0xbe1df0ac	-0.1542384
209	0xbd04c86f	-0.03241771
210	0x3ca1c080	0.019745111
211	0xbd3851f3	-0.045000028
212	0x3c81a4bd	0.015825624
213	0x3d1509e4	0.036386386
214	0xbc4163e3	-0.0118036
215	0x3d4de39b	0.05026589
216	0xbd6c5057	-0.057693806
217	0x3d906543	0.07050564
218	0x3d0ce17b	0.034394722
219	0xbde57247	-0.11203437
220	0x3df0b553	0.11753335
221	0xbd17cb20	-0.03705895
222	0xbcba3fb5	-0.022735456
223	0x3c7eb743	0.015546623
224	0x3dbae285	0.091252364
225	0xbbda341b	-0.0066590435
226	0x3d394866	0.04523506
227	0x3d322586	0.043492816
228	0xbd93c2ac	-0.07214865
229	0x3df6a105	0.12042431
230	0xbbf7d109	-0.0075627607
231	0xbc953ab6	-0.018216472
232	0xbc6e661a	-0.01455071
233	0xbd012214	-0.03152664
234	0x3afa1108	0.0019078562
235	0x3de1ef77	0.110320024
236	0xbd7b482a	-0.061348118
237	0xbda8d058	-0.082428634
238	0x3d3ac164	0.045594588
239	0x3c8e6b7a	0.017385233
240	0xbccd7384	-0.025079496
241	0x3da51ff6	0.08062737
242	0x3af7010c	0.0018844916
243	0x3ca1ca55	0.0197498
244	0x3cf7f37f	0.030267475
245	0xbd209ab2	-0.03921003
246	0x3c39ef2e	0.011348529
247	0xbe173368	-0.14765704
248	0xbd3dbd73	-0.04632325
249	0x3c489c15	0.012244244
250	0xbd05d669	-0.03267518
251	0x3c99e79a	0.018787194
252	0xbc874537	-0.016512496
253	0x3c0c7e14	0.008574981
254	0xbbd439c4	-0.0064766128
255	0x3d84abdc	0.06478092

1.bias f4 [256]
0	0xbaaecd4f	-0.0013336333
1	0x3ac152cb	0.0014749406
2	0xba88664e	-0.0010406466
3	0x3ac3dfa0	0.0014943965
4	0xba8545bb	-0.0010167876
5	0xbad1348b	-0.0015961094
6	0x3acb7498	0.0015522419
7	0xba8b7484	-0.0010639583
8	0x3ac4eea9	0.001502474
9	0x3aceb004	0.001576901
10	0x3a54d92d	0.000811952
11	0xbab8d6cb	-0.0014102099
12	0x3aa040ae	0.0012226307
13	0xba0aaac3	-0.00052897277
14	0x3ad02dbc	0.001588277
15	0x3ad2651c	0.0016051861
16	0xbabc27e1	-0.0014355147
17	0xbaca6340	-0.0015440956
18	0x3aa17982	0.0012319537
19	0xba1903ae	-0.0005837035
20	0x3a8fa490	0.0010959078
21	0x3a950b1f	0.0011371112
22	0xbac37cda	-0.0014914528
23	0xbac960a0	-0.001536388
24	0x3acb7dfa	0.0015525215
25	0xbaaced7b	-0.0013193333
26	0xba1dac04	-0.0006014707
27	0xbaacf27d	-0.0013194826
28	0x3ad118b4	0.0015952797
29	0xba8fb043	-0.0010962564
30	0xba04f19a	-0.0005071402
31	0x3ac4744b	0.0014988271
32	0x39dae454	0.00041750318
33	0x3acc3f9a	0.001558292
34	0x3ab7039d	0.0013962869
35	0xbac25e96	-0.0014829214
36	0x3ab7bb6e	0.001401765
37	0x39abf269	0.0003279627
38	0xbac5c372	-0.0015088154
39	0x3ad2bbd8	0.001607771
40	0xbab4ca83	-0.0013793263
41	0xba9b65cb	-0.0011855898
42	0xbac58039	-0.001506812
43	0x3ab8469e	0.0014059131
44	0xbad36cd8	-0.001613046
45	0xba953879	-0.0011384628
46	0x3a9c88e5	0.0011942653
47	0x3ab6a13a	0.0013933547
48	0x3ad50b32	0.0016253947
49	0xbabf87f3	-0.001461266
50	0x3ace828c	0.0015755459
51	0x3ab9f1b5	0.0014186414
52	0xbaacfb70	-0.0013197493
53	0xb9eb6db1	-0.0004490442
54	0x3ac7edf2	0.0015253408
55	0x3abb929e	0.0014310663
56	0xbab64f26	-0.0013909086
57	0xbac3d5d8	-0.001494105
58	0x3acd051f	0.0015641785
59	0x393f840a	0.00018264368
60	0x3a977935	0.0011556508
61	0xbacc0336	-0.0015564922
62	0xbac31c65	-0.0014885782
63	0x3accb756	0.0015618603
64	0x3a039085	0.00050187885
65	0x3ab704e9	0.0013963255
66	0xbac05e79	-0.0014676593
67	0x3a531c1e	0.0008053201
68	0x3aa4f879	0.0012586258
69	0xba99728e	-0.0011707114
70	0x3aaf4fd3	0.001337523
71	0x3ac4b3f1	0.001500724
72	0x3a7392e8	0.0009291605
73	0x3ac4c538	0.0015012389
74	0x3ac68c18	0.0015147952
75	0x3aabebc0	0.0013116524
76	0x3ac65638	0.0015131896
77	0xbab420b7	-0.001374266
78	0xbaa01934	-0.0012214542
79	0x3ad0789d	0.0015905086
80	0x3ac25f7d	0.0014829483
81	0x3ac151f4	0.0014749155
82	0xbabef31d	-0.0014568303
83	0xbacdd5cd	-0.0015703976
84	0x3ad4e4d6	0.0016242515
85	0xbaacaed4	-0.0013174661
86	0xb772628b	-1.4447268e-05
87	0x3ad32b1c	0.001611087
88	0x3acff727	0.0015866504
89	0x3aabe143	0.0013113398
90	0x3aca0f47	0.001541593
91	0x3ac850c1	0.0015282856
92	0xbab4b877	-0.0013787885
93	0xb9738b62	-0.0002322621
94	0x3951614e	0.00019968042
95	0x3ad05a66	0.0015896081
96	0xbabdf071	-0.0014491213
97	0x3a41b1a8	0.00073888386
98	0xba571685	-0.0008204955
99	0x3ab492fa	0.0013776713
100	0xba8e8b39	-0.0010875232
101	0xbac12e36	-0.0014738503
102	0xbaa3ed65	-0.0012506662
103	0x3acb1412	0.0015493652
104	0xba63e26c	-0.0008693102
105	0x3ad0f537	0.001594222
106	0x3a9643a8	0.0011464255
107	0x3a8e35f3	0.0010849818
108	0x3ac7dcd8	0.0015248312
109	0xbac27761	-0.0014836603
110	0x3aa4cb01	0.0012572707
111	0x3958aabd	0.0002066297
112	0xbac7dbef	-0.001524804
113	0x3ad0ca7a	0.0015929483
114	0x3ac2d63a	0.001486487
115	0x3ac7edbf	0.0015253349
116	0xbaca462e	-0.0015432292
117	0x3ab83739	0.0014054544
118	0x3a9a04c7	0.0011750691
119	0xb9d3fb86	-0.00040432456
120	0xbaa43a8d	-0.0012529657
121	0xbab32362	-0.0013667161
122	0xba018ed9	-0.00049422454
123	0x3804b068	3.1635544e-05
124	0x3a84ef92	0.0010142198
125	0xba859758	-0.0010192199
126	0x3acedfbd	0.0015783232
127	0x3ad2e948	0.0016091252
128	0x3ad2e13a	0.0016088851
129	0x3ac5bd6a	0.0015086357
130	0x3ad149a2	0.0015967379
131	0x3aca9d61	0.001545828
132	0x3ad0ca39	0.0015929408
133	0x3acbf593	0.0015560858
134	0x3acca56d	0.0015613266
135	0xbaca0d6c	-0.0015415377
136	0x3ab09464	0.0013471958
137	0xbac9678b	-0.0015365941
138	0x3ac49755	0.0014998714
139	0xbaccdc4a	-0.0015629616
140	0x3ad0eff9	0.0015940658
141	0xba76f763	-0.0009421019
142	0xba9d15f2	-0.001198469
143	0xbac0a476	-0.0014697451
144	0x398a73e2	0.0002640775
145	0x3acca6dd	0.0015613694
146	0xb99e4925	-0.00030190605
147	0xba95f1c7	-0.0011439853
148	0xba9e748c	-0.0012089177
149	0x3ad27a7a	0.0016058229
150	0x3acd6ecb	0.0015673278
151	0xba530ab6	-0.0008050607
152	0x390be572	0.00013341548
153	0x3ad14a52	0.0015967584
154	0x3ac89f29	0.0015306222
155	0xbabe07b5	-0.0014498146
156	0x3ad4580c	0.0016200556
157	0xbabc40ae	-0.0014362538
158	0x3ac03c68	0.001466644
159	0x3ac3f24a	0.0014949527
160	0xba9b025b	-0.0011826264
161	0xbab8c263	-0.0014096018
162	0x39089f64	0.00013029348
163	0xbac9be21	-0.0015391746
164	0x389bd321	7.430302e-05
165	0x3ac35a79	0.0014904282
166	0x3ad433dd	0.0016189773
167	0x3a364cd5	0.0006954198
168	0xbaaf9d72	-0.0013398363
169	0x3ab7065f	0.0013963691
170	0x38aa0e5d	8.108907e-05
171	0xbac73746	-0.0015198968
172	0xbaa8570d	-0.0012843326
173	0xbac7264f	-0.0015193912
174	0x3acae840	0.0015480593
175	0xbace15cb	-0.0015723048
176	0x3ac4bbe2	0.0015009607
177	0xbabef115	-0.0014567698
178	0x3ac0dc3c	0.0014714072
179	0x3ad57be1	0.0016287529
180	0x3ad5da99	0.0016315758
181	0x3acd4d91	0.0015663375
182	0xbac9f149	-0.0015406992
183	0x3ad1d5d9	0.0016009166
184	0xb9e66c27	-0.00043949598
185	0x3aaf1a2b	0.0013359239
186	0xba8bbb29	-0.0010660636
187	0x3acb9937	0.0015533332
188	0x3ab13b4a	0.0013521698
189	0xbaa08128	-0.0012245523
190	0x3ad632f1	0.0016342086
191	0x3a2ca05e	0.0006585176
192	0xbaada6bf	-0.0013248547
193	0xbac3d9cd	-0.0014942229
194	0x3ad00d39	0.0015873081
195	0x395346f2	0.00020148957
196	0xbab11458	-0.0013510091
197	0x3ace91e7	0.0015760035
198	0xba8909bc	-0.0010455172
199	0xbabb718f	-0.0014300811
200	0x3ad022ed	0.0015879549
201	0xb9f96c61	-0.0004757373
202	0xbac43f4f	-0.0014972481
203	0x3ab5bd64	0.0013865647
204	0xbacdf68d	-0.0015713737
205	0x3a004e12	0.0004894446
206	0xbac52138	-0.0015039807
207	0x3a8ddef5	0.0010823893
208	0x3abfde43	0.0014638383
209	0x362dcf18	2.5899553e-06
210	0x3abfadc8	0.0014623934
211	0xba39d108	-0.0007088338
212	0xbac07e5e	-0.0014686098
213	0x3a0be41f	0.0005336422
214	0x3aca3506	0.0015427179
215	0xba2972fd	-0.0006463973
216	0xbaa78cbc	-0.0012783031
217	0xbabdaed0	-0.0014471654
218	0x3aa365ab	0.0012466213
219	0x3acadfb3	0.0015478045
220	0x3ad4c40e	0.0016232745
221	0xbab86d8e	-0.0014070736
222	0x3acf1a92	0.0015800765
223	0x3a587833	0.0008257657
224	0xbaa40648	-0.0012514079
225	0xba34d169	-0.00068976596
226	0xba6b7e77	-0.00089833833
227	0x3ac296fa	0.001484602
228	0x3ac3fe32	0.0014953075
229	0x3acaa700	0.0015461147
230	0xbabed758	-0.0014560027
231	0x3ab68e04	0.0013927822
232	0xba2c54b9	-0.0006573904
233	0x3aba7049	0.0014224137
234	0xb9897758	-0.00026219594
235	0x3a81639f	0.0009871608
236	0xbac02af7	-0.0014661242
237	0x3a2fc4cb	0.00067050447
238	0xbaca516e	-0.0015435645
239	0xbab09504	-0.0013472144
240	0xbac62a35	-0.001511878
241	0x3ac89c6d	0.0015305408
242	0xbaa5616d	-0.0012617536
243	0xbac5b2d4	-0.0015083202
244	0x3aa48d5a	0.0012554333
245	0xba74099a	-0.0009309292
246	0xbac788f4	-0.001522331
247	0x3acdbf1e	0.0015697216
248	0x3965d210	0.00021917396
249	0x3aa19942	0.0012329
250	0x3abd3877	0.0014436383
251	0x3abf2ca5	0.0014585449
252	0x3a60eb80	0.0008580014
253	0x3ad52512	0.0016261658
254	0x3acdc3f9	0.0015698663
255	0xbac0c4d7	-0.00147071

4.weight f4 [256, 256]
0	0x3c21586f	0.009847744
1	0xbda66584	-0.08124831
2	0x3dcab4cf	0.09897768
3	0x3c3ec89b	0.011644508
4	0xbda9a81d	-0.08284018
5	0xbe44a010	-0.19201684
6	0xbc39883b	-0.011323984
7	0xbdc5b57b	-0.09653755
8	0xbb3e1573	-0.0029004484
9	0xbe006024	-0.12536675
10	0xbd393b02	-0.04522229
11	0xbdcaaaa5	-0.09895829
12	0xbcae8c1e	-0.021307047
13	0xbd982d4b	-0.07430514
14	0x3df8ff3d	0.12158058
15	0x3d15c92a	0.036568798
16	0xbd867dd9	-0.06566972
17	0x3d6ada3a	0.057337023
18	0xbe0433c4	-0.12910372
19	0xbd9620e8	-0.07330495
20	0xbd4987c8	-0.049201757
21	0x3d03f999	0.032220457
22	0x3df14652	0.11780991
23	0xbe02dae9	-0.1277882
24	0x3ded250d	0.115793325
25	0x3d35ebc1	0.044414286
26	0xbd899d48	-0.06719452
27	0xbd6def77	-0.0580897
28	0xbe2a00e1	-0.16601898
29	0xbd448f3e	-0.04798817
30	0x3d791a68	0.0608162
31	0x3e62a003	0.22131352
32	0x3e176776	0.14785561
33	0x3d04b297	0.03239688
34	0xbd0ec718	-0.03485784
35	0xbd560505	-0.05225088
36	0x3bce599a	0.0062973024
37	0x3d872e55	0.06600634
38	0xbdeab198	-0.114596546
39	0xbc913764	-0.017726608
40	0xbe1fb047	-0.15594588
41	0xbdc6d7b8	-0.09709114
42	0x3d3d75c8	0.046254903
43	0xbb32abe6	-0.0027263104
44	0xbd165182	-0.036698826
45	0xbcd04f4a	-0.025428433
46	0xbdab92ec	-0.083776325
47	0xbe80dfc2	-0.25170714
48	0x3e321f6b	0.17394798
49	0xbe800016	-0.25000066
50	0x3dea83c7	0.11450916
51	0xbd8192db	-0.063268386
52	0x3c05ad5c	0.008159008
53	0x3cd99b68	0.026563361
54	0x3d814298	0.0631153
55	0x3d6d70db	0.057968955
56	0xbdc9cbff	-0.09853362
57	0xbd35c00c	-0.044372603
58	0x3de3b5a6	0.11118631
59	0xbd9b42bd	-0.07581089
60	0xbe03276e	-0.1280801
61	0x3dca9eb0	0.098935485
62	0x3e0d8a50	0.13822293
63	0xbe19bf48	-0.15014374
64	0xbe1c4633	-0.15261154
65	0x3dbc4a1d	0.091938235
66	0x3cfe0901	0.031010153
67	0xbd8b6305	-0.06805996
68	0xbd41947a	-0.04726074
69	0xbe0b00a7	-0.13574468
70	0x3caec35a	0.021333385
71	0xbc32c083	-0.010910156
72	0xbe42668a	-0.18984428
73	0x3d3f1e6a	0.046659864
74	0xbc7bbf45	-0.015365426
75	0x3d7d50b0	0.061844528
76	0x3cdfe306	0.027329933
77	0x3e3d12e2	0.18464234
78	0x3e00e57c	0.12587541
79	0xbdd2cd99	-0.10293121
80	0x3de956d9	0.11393518
81	0xbda29645	-0.07938818
82	0xbcfff9b5	-0.031247
83	0xbda43fb5	-0.08019964
84	0xbb7b464c	-0.003834146
85	0xbe0f7752	-0.14010361
86	0x3e1e8b2c	0.15482777
87	0x3d1675be	0.03673338
88	0xbdd16489	-0.10224254
89	0x3dc95105	0.098299064
90	0x3d87e056	0.066345856
91	0xbe7a31b2	-0.2443302
92	0x3d061a0e	0.03273969
93	0x3d870c6b	0.065941654
94	0xbd20cba7	-0.039256718
95	0x3e2b0d56	0.16704306
96	0x3da022ec	0.07819161
97	0x3d88bb8c	0.06676397
98	0xbdd1d77a	-0.10246177
99	0x3d066c2d	0.03281801
100	0xbd0371f8	-0.03209111
101	0xbe3a6337	-0.1820191
102	0x3d3fc19e	0.046815507
103	0xbc004b47	-0.0078304475
104	0x3c998663	0.018740838
105	0x3c7301c1	0.014831961
106	0xbbc5fee9	-0.0060423505
107	0xbda8ad6a	-0.08236201
108	0x3deac222	0.11462809
109	0xbe001eb3	-0.12511711
110	0x3e2fd29d	0.17170186
111	0x3e03c70a	0.12868896
112	0x3c5c536b	0.013447623
113	0xbb155fee	-0.0022792774
114	0x3d566cd9	0.0523499
115	0x3c5590b0	0.0130349845
116	0xbdb37688	-0.087628424
117	0xbd8a40bb	-0.067506276
118	0xbe138bf5	-0.14408858
119	0x3d7f3a4c	0.062311456
120	0x3db67379	0.089087434
121	0xbd17d0c3	-0.037064325
122	0xbe0e83a7	-0.13917409
123	0xbe0b99af	-0.13632844
124	0x3d436a38	0.04770872
125	0xbdeece40	-0.11660433
126	0x3d9c0178	0.07617468
127	0x3e2769f8	0.16349018
128	0x3dcb73a1	0.09934164
129	0x3cdf1d41	0.027235629
130	0xbd4ec8c4	-0.050484434
131	0x3ca5f69b	0.020259192
132	0xbddd9d5e	-0.10821031
133	0xbdc9220d	-0.09820948
134	0xbb89c769	-0.0042046797
135	0xbd8906c2	-0.06690742
136	0x3c5842a8	0.013199486
137	0x3db88d4d	0.09011326
138	0x3d63696f	0.05552047
139	0xbdd2fbb3	-0.10301914
140	0xbc497bd8	-0.012297593
141	0xbd095c1b	-0.033535104
142	0xbc5d980d	-0.013525021
143	0x3cb4093b	0.021977058
144	0x3ca54daf	0.020178644
145	0x3e74a25f	0.23890065
146	0x3d1bf735	0.038077552
147	0xbd564427	-0.05231109
148	0x3dce80d8	0.10083169
149	0xbc21a5ac	-0.009866159
150	0xbd964e15	-0.07339112
151	0xbdb68596	-0.08912198
152	0x3e0a987e	0.13534734
153	0x3d75839d	0.05993997
154	0x3dce31fc	0.100681275
155	0xbdebc89a	-0.11512871
156	0x3dd77b96	0.10521619
157	0x3cc6ae9f	0.024253188
158	0x3c5a79a2	0.013334664
159	0x3d34760f	0.044057902
160	0xbd5dae7c	-0.05412148
161	0xbda4cb92	-0.080466405
162	0x3c9cc215	0.019135514
163	0xbe7897c7	-0.24276648
164	0x3e031d12	0.12804058
165	0x3c36bf16	0.011153957
166	0xbe163f1c	-0.14672512
167	0x3e091430	0.13386607
168	0x3e2f9bf7	0.1714934
169	0xbe33f709	-0.17574705
170	0x3dd3458d	0.10316
171	0x3e13a3af	0.14417909
172	0xbdddab00	-0.10823631
173	0x3e11ea3c	0.1424951
174	0x3cbb44b2	0.022859905
175	0x3bf1bf2f	0.007377527
176	0xbcdc5ea6	-0.0269006
177	0xbda8dfef	-0.08245837
178	0xbd11aef2	-0.03556723
179	0xba4201b2	-0.00074007653
180	0xbdb6b33a	-0.089209035
181	0xbd3c203e	-0.045929186
182	0xbc9c81da	-0.019104887
183	0xbd460773	-0.048346948
184	0xbe54a9b1	-0.20767857
185	0x3c92d4f3	0.017923808
186	0xbe1105fc	-0.14162439
187	0x3d78b081	0.060715202
188	0x3e4584d6	0.19288954
189	0xbe31e490	-0.17372346
190	0xbd819ddc	-0.063289374
191	0xbdcb2a47	-0.09920173
192	0xbd8a0f37	-0.06741183
193	0x3dddc012	0.1082765
194	0xbe0f400a	-0.13989273
195	0x3daf1f4a	0.0855089
196	0x3d36933b	0.044574004
197	0xbcec58bf	-0.028850911
198	0x3c13fa86	0.009031897
199	0xbde7cc52	-0.11318268
200	0xbd9e4460	-0.07727885
201	0x3db1ab34	0.086752325
202	0x3e0c65f7	0.13710772
203	0xbd1d3756	-0.03838285
204	0x3dee8f10	0.11648381
205	0xbc80286e	-0.015644278
206	0xbe4e5dfa	-0.20153037
207	0xbc7db07d	-0.015483973
208	0x3d389fec	0.04507439
209	0xbccb2de2	-0.024802152
210	0x3e04a90b	0.1295511
211	0xbe06d20a	-0.13166061
212	0xbcef2b37	-0.029195411
213	0x3d169518	0.03676328
214	0xbdf49680	-0.11942768
215	0xbd261d64	-0.040555373
216	0xbd466fa3	-0.04844631
217	0xbc32a2c6	-0.010903066
218	0x3db983ee	0.09058367
219	0xbe522861	-0.20523216
220	0xbe083d2d	-0.13304587
221	0xbe0e9e3b	-0.13927548
222	0x3c1a8007	0.009429938
223	0x3d948917	0.0725271
224	0x3e01285a	0.12613049
225	0x3a681b58	0.0008854172
226	0xbd6e3df9	-0.05816457
227	0xbdc47be6	-0.09593944
228	0x3d7a38b2	0.061089225
229	0xbcdf88a7	-0.02728684
230	0x3cb8d6cf	0.022563366
231	0x3e51d832	0.20492628
232	0xbd7793cb	-0.06044368
233	0xbd0c83da	-0.03430543
234	0xbe1b32a9	-0.15156044
235	0xbd952053	-0.07281556
236	0x3c81cb9a	0.015844155
237	0xbd259eaa	-0.040434517
238	0xbdbb32d5	-0.09140555
239	0x3e38ab28	0.18034041
240	0xbda212a3	-0.07913711
241	0xbe06502a	-0.13116518
242	0xbd846d6e	-0.064661846
243	0xbdaef2fe	-0.08542441
244	0xbd8c1ae5	-0.06841067
245	0xbc6eb91d	-0.014570502
246	0xbca7654b	-0.020434042
247	0xbe4bcaee	-0.1990163
248	0xbca3ead6	-0.02000944
249	0xbdbd4c7e	-0.09243105
250	0xbbc2f742	-0.0059498856
251	0xbd8b9be7	-0.068168454
252	0x3c598109	0.013275393
253	0x3e09c7c5	0.13455112
254	0x3c88d562	0.016703311
255	0xbcf6fb4d	-0.030149126

4.bias f4 [256]
0	0xba037f74	-0.00050162454
1	0x3acc6e79	0.0015596888
2	0x3acf41b4	0.0015812428
3	0x3abd5630	0.0014445242
4	0x3a5a45cd	0.0008326441
5	0xba643523	-0.0008705428
6	0xba989554	-0.0011641183
7	0x3ace96c3	0.0015761483
8	0xbab59a67	-0.001385522
9	0xbac17109	-0.0014758419
10	0xba14a7b6	-0.0005670743
11	0x3acfb874	0.0015847818
12	0x3aa28caf	0.0012401546
13	0x3ad27590	0.0016056765
14	0x3acc0ca2	0.001556773
15	0xb9cbd51c	-0.00038877956
16	0x3ace1c50	0.001572499
17	0x3a90e880	0.0011055619
18	0xbac27553	-0.0014835991
19	0xbab51c92	-0.0013817719
20	0xbab2777f	-0.0013615935
21	0xbac6e4ed	-0.0015174426
22	0xbabc1450	-0.0014349315
23	0x3acca91f	0.0015614367
24	0x3a5ee1d6	0.000850228
25	0x3a94cc8c	0.0011352464
26	0xbac3e6af	-0.0014946068
27	0x3acbfb7a	0.0015562617
28	0xbac0aaed	-0.0014699377
29	0xbac274f4	-0.001483588
30	0xbac67745	-0.0015141746
31	0xbaad7f90	-0.0013236869
32	0x3ad4e4c9	0.00162425
33	0xbac27abd	-0.0014837604
34	0x3acdddb2	0.0015706329
35	0x3ad15b81	0.0015972705
36	0x3a9218c1	0.0011146293
37	0x3acc9291	0.0015607645
38	0x3ac6c6db	0.0015165465
39	0x3ac8db15	0.0015324081
40	0x39f06237	0.00045849543
41	0x3acf68ef	0.0015824119
42	0x3ac28b76	0.0014842588
43	0xba1c92db	-0.0005972811
44	0x3abac04e	0.0014247985
45	0xbababc02	-0.0014246705
46	0x3a9b4493	0.0011845998
47	0xbab396d6	-0.0013701569
48	0x3a937425	0.0011249824
49	0xb973be50	-0.00023245183
50	0x39ebd6e7	0.00044982808
51	0xbab7c5a1	-0.001402069
52	0xbab185a0	-0.0013543852
53	0xbabe995a	-0.0014541552
54	0xbaccfadf	-0.001563873
55	0xbabe7645	-0.0014531097
56	0x3ac4a40b	0.0015002502
57	0x3a9ce428	0.0011969851
58	0x3acec534	0.0015775324
59	0x3ac52120	0.0015039779
60	0xbaa9639e	-0.0012923365
61	0xbab61f0e	-0.0013894753
62	0xbab52fc1	-0.0013823436
63	0xba770c0d	-0.0009424098
64	0xbac43ea8	-0.0014972286
65	0x3ad1c4a9	0.0016004044
66	0x3a9c394b	0.001191893
67	0x3ad03420	0.0015884675
68	0x3ad3baf4	0.0016153739
69	0x3ac25232	0.0014825522
70	0x3ac7acd8	0.0015234007
71	0x3ac37eb9	0.0014915086
72	0xba2f2e98	-0.0006682663
73	0x3ac3ff64	0.0014953432
74	0xba25fb59	-0.0006331704
75	0xbaa060b1	-0.0012235848
76	0x3ab568b2	0.0013840406
77	0x3acee3f4	0.0015784488
78	0x3ad363fc	0.001612782
79	0xb9d06128	-0.0003974524
80	0xbab5c36a	-0.0013867442
81	0x3a4fe897	0.0007931082
82	0xba3be233	-0.000716719
83	0x3acdfc7b	0.0015715504
84	0x3ad0ad15	0.0015920723
85	0xbab7a11b	-0.0014009805
86	0xb96ada05	-0.00022397198
87	0x3acaa078	0.00154592
88	0xbabb8de9	-0.001430926
89	0xbacee10e	-0.0015783624
90	0x3a99a2ae	0.0011721456
91	0xbac2abc4	-0.0014852216
92	0xb9d78022	-0.00041103462
93	0xbaa58c19	-0.0012630253
94	0x395c0cdb	0.00020985624
95	0xb909ecb9	-0.00013153524
96	0x3aa2e637	0.0012428229
97	0xbab93633	-0.0014130533
98	0xbaa2c4a0	-0.0012418218
99	0x3ac70191	0.0015182962
100	0x3ad4c715	0.0016233647
101	0x3aca3394	0.0015426748
102	0xbaa0f9b5	-0.001228145
103	0x3ad653fc	0.0016351934
104	0x3accae34	0.0015615881
105	0xbaa94cb4	-0.0012916536
106	0x3a91a3d5	0.0011111448
107	0x39f9fc99	0.0004768118
108	0x3a992307	0.0011683413
109	0xb9949162	-0.00028337078
110	0xbabea38a	-0.0014544588
111	0xba0d2380	-0.0005384013
112	0xbaba6669	-0.0014221194
113	0xbac285e2	-0.0014840926
114	0xbac5bfb5	-0.001508704
115	0x3acbcaf7	0.0015548159
116	0x3ac11585	0.0014731145
117	0x3ac82553	0.0015269913
118	0xba697197	-0.0008905171
119	0xbaa6872b	-0.0012705078
120	0xba7e62ab	-0.0009704034
121	0x3ac70c2d	0.0015186124
122	0xbab286cf	-0.0013620498
123	0xbab71dcb	-0.0013970671
124	0x3aa3267a	0.001244738
125	0xbabd29f3	-0.0014432058
126	0xbac3a1ca	-0.0014925536
127	0x3aa94ec9	0.0012917157
128	0x3ac81141	0.0015263931
129	0x3a2d38ae	0.0006607872
130	0x3ab98a16	0.0014155533
131	0xbaac6197	-0.0013151643
132	0x3ad1fa6e	0.0016020068
133	0xbac1b6a4	-0.0014779163
134	0x3ac6006c	0.0015106327
135	0x3ab895c6	0.0014082722
136	0x3aceaa6f	0.0015767346
137	0xba263308	-0.0006340002
138	0x3abfd673	0.0014636054
139	0x3ac8b975	0.001531406
140	0xbab66a79	-0.0013917229
141	0xbab752b2	-0.0013986437
142	0xbac4f5ce	-0.0015026869
143	0xbabdfb0e	-0.0014494376
144	0xbab64a8d	-0.0013907716
145	0x3acede45	0.0015782794
146	0xba8d88af	-0.0010798181
147	0x3ace9392	0.0015760532
148	0x3acf05d1	0.001579458
149	0xba90cbb0	-0.0011047032
150	0x3ad30d3f	0.001610197
151	0x3a876861	0.001033079
152	0x3908f904	0.00013062736
153	0x3ac82371	0.0015269351
154	0x3acd9edd	0.0015687604
155	0x3ace7400	0.0015751123
156	0xba8d0336	-0.0010758403
157	0xbab2fac6	-0.0013655059
158	0xba6e9f6e	-0.00091027364
159	0xbabfafba	-0.0014624514
160	0x3acb8f26	0.0015530332
161	0x3acea92e	0.0015766972
162	0x3acd46ec	0.0015661395
163	0x3aaa0420	0.00129712
164	0x3acc53d2	0.0015588945
165	0x3ad2ba9a	0.001607734
166	0xbab297eb	-0.0013625597
167	0xb9cb3039	-0.00038755106
168	0x3ac44620	0.0014974512
169	0xbab18746	-0.0013544343
170	0xba91d477	-0.0011125942
171	0x3aa6bf27	0.0012721763
172	0xb9aa4f4d	-0.0003248401
173	0x3acadf58	0.0015477939
174	0x3ad09935	0.00159148
175	0x3a87bf82	0.0010356756
176	0x3a618cd7	0.00086040556
177	0xbabfe84f	-0.0014641377
178	0xbac4c8c6	-0.0015013448
179	0x3ac5a261	0.00150783
180	0xba9aa43f	-0.0011798217
181	0xbabea622	-0.0014545361
182	0xbac29dcc	-0.0014848053
183	0x3ac7b51d	0.0015236471
184	0x3a856c76	0.0010179419
185	0xbab49e03	-0.0013780001
186	0xb9a7d93d	-0.00032014577
187	0xbabed239	-0.0014558501
188	0x3acf5e31	0.0015820918
189	0x3acbcef6	0.001554935
190	0xbaba3f24	-0.0014209491
191	0xbac418f4	-0.001496105
192	0xbac2024f	-0.0014801713
193	0x3ad2f913	0.0016095958
194	0x3a808355	0.0009804765
195	0x3aa61d88	0.0012673596
196	0x3aba6b5e	0.0014222672
197	0x3ac8656b	0.0015289014
198	0xbaaeaf0d	-0.0013327316
199	0x3acb43f3	0.0015507921
200	0xba5fc5c4	-0.0008536244
201	0x3a8bc104	0.0010662382
202	0xbac4156d	-0.0014959999
203	0x3acb1013	0.0015492461
204	0x3ab1da3a	0.0013569065
205	0xbace0817	-0.0015718964
206	0x3aaafd38	0.0013045436
207	0x3ace412c	0.0015735975
208	0xbaba3df4	-0.0014209137
209	0x3aa591fe	0.001263201
210	0xb9ecead0	-0.00045188377
211	0x3acdf347	0.0015712761
212	0xbac0ae32	-0.0014700352
213	0xbac0b111	-0.0014701207
214	0x3a661261	0.00087765424
215	0xbabb6536	-0.0014297131
216	0x3ad56cc5	0.0016283026
217	0x3ace4218	0.001573625
218	0xba9e00ab	-0.0012054642
219	0x3a971088	0.0011525312
220	0x3aca4a0b	0.0015433443
221	0x39e7ef5d	0.00044238093
222	0x3ad32414	0.0016108775
223	0xbab8bd14	-0.0014094436
224	0x3ac87a1d	0.0015295182
225	0x3accadb9	0.0015615738
226	0xbac0d9da	-0.0014713362
227	0x3acfd6d5	0.0015856872
228	0x3ad2ad7d	0.0016073432
229	0xbaa1d28b	-0.0012346072
230	0xbaaaf8b6	-0.0013044092
231	0xbac0690a	-0.0014679742
232	0x3acee2f3	0.0015784189
233	0xbac3e354	-0.0014945068
234	0xba5d154b	-0.0008433654
235	0xbab850a2	-0.0014062116
236	0xba9578aa	-0.0011403759
237	0x3ac9c116	0.0015392627
238	0xbab68892	-0.0013926199
239	0xbac1f49a	-0.0014797628
240	0xbac37f6a	-0.0014915292
241	0x3abe8ffa	0.0014538758
242	0x3ad24dbe	0.0016044897
243	0x3acdd338	0.0015703207
244	0x39b6be21	0.00034855402
245	0xbac16f38	-0.0014757877
246	0x3aca539b	0.0015436293
247	0xbabe52d4	-0.0014520534
248	0xbabe0e4c	-0.001450011
249	0xbaac4331	-0.0013142583
250	0xbabf8c25	-0.001461391
251	0x3aced219	0.0015779167
252	0xbac1091a	-0.0014727444
253	0x3ac7c0d6	0.0015239965
254	0x3ab47f77	0.0013770898
255	0x3ad0e235	0.0015936556

alpha.weight f4 [2, 256]
0	0xbcce5eb2	-0.025191639
1	0x3c63b170	0.013897285
2	0xbbaccfc5	-0.0052737915
3	0x3b5eeccb	0.0034015651
4	0xbb85216d	-0.0040628226
5	0x3b2c3785	0.002627821
6	0x3a251038	0.0006296667
7	0x3b9520b7	0.004551019
8	0xbc0ec214	-0.008713264
9	0xbbd6eedc	-0.006559236
10	0x3b5992d4	0.0033199089
11	0x3c49bff1	0.012313829
12	0x3a46e589	0.0007587304
13	0xbb90e328	-0.0044216104
14	0x3b48e52e	0.003065418
15	0xbb96b867	-0.004599619
16	0xb8f7eae4	-0.000118216296
17	0x3c4e9321	0.01260832
18	0xbcc4b0b6	-0.024010044
19	0xbbb29566	-0.0054499386
20	0xbc80c410	-0.01571849
21	0x3b242328	0.0025045369
22	0xbbd69af0	-0.0065492317
23	0x3bb6e2eb	0.00558125
24	0x3b301c54	0.0026872354
25	0xbbc3f64b	-0.005980288
26	0xbc24faa9	-0.010069528
27	0xbb89850d	-0.004196769
28	0x3b9618b1	0.00458058
29	0x3c7f0f77	0.015567652
30	0x3c57531d	0.013142374
31	0x3bbdea07	0.0057957205
32	0x3ae4ee93	0.001746612
33	0x3af49aeb	0.0018661892
34	0x38fb0bca	0.000119708086
35	0x3ca76398	0.020433232
36	0x3b1eb950	0.0024219342
37	0xbb294610	-0.0025829114
38	0x3bd6a84c	0.0065508243
39	0x3c8b8862	0.017032806
40	0xbc3c4136	-0.011490157
41	0x33f4bbaf	1.1396275e-07
42	0xbcbf2ca0	-0.023336709
43	0x3c04e7b2	0.008111881
44	0x3b3cccaf	0.0028808524
45	0xbc282705	-0.010263209
46	0x3bbdafbe	0.0057887724
47	0x3c674def	0.014117702
48	0xb88d119d	-6.726685e-05
49	0x3cda5051	0.026649626
50	0x3acf709a	0.0015826405
51	0xbb36c7c8	-0.0027890075
52	0xbbe7ded8	-0.0070761256
53	0xba8f27b1	-0.0010921863
54	0xbbfd2f43	-0.0077265813
55	0x3aa58e78	0.001263096
56	0x3c246437	0.010033659
57	0x3c3d164f	0.011540963
58	0x3c2101af	0.009827062
59	0x38d2c117	0.00010049546
60	0x3c3d791b	0.011564518
61	0x3b151cd5	0.002275278
62	0xba8ffc9b	-0.0010985316
63	0x3baedf1b	0.005336655
64	0xbc82b331	-0.015954586
65	0x3a1e6a15	0.0006043029
66	0x3b8c86a3	0.004288511
67	0xbae50c49	-0.0017474975
68	0xbc320a7f	-0.01086676
69	0xbcb0b2e9	-0.021569686
70	0xbbeb5d0b	-0.0071827224
71	0x3b9fca5c	0.004876418
72	0x3c16fd3d	0.00921565
73	0xba19642f	-0.00058514153
74	0xbb890947	-0.004182014
75	0xbbd999aa	-0.0066406326
76	0xbc2b35fc	-0.010449883
77	0xbaa21e8b	-0.0012368722
78	0x397fe6f0	0.00024404726
79	0x3b0437fa	0.0020174966
80	0x3c43ffa6	0.011962807
81	0x3a163b06	0.0005730841
82	0xbbdbf443	-0.006712468
83	0xbc1021c4	-0.008797113
84	0x3bac0aeb	0.005250325
85	0xbbab5fd7	-0.005229931
86	0xbc63bd1b	-0.013900067
87	0xbcd5d25d	-0.026101286
88	0xbc377f2c	-0.011199754
89	0xbc8e22c9	-0.017350571
90	0x3c77f57e	0.0151342135
91	0xbc612f1b	-0.013744141
92	0xbc419312	-0.011814849
93	0x3b7add43	0.0038278855
94	0x3b9c1358	0.004763048
95	0xbc185857	-0.009298406
96	0xbb626b17	-0.0034548694
97	0xbc3d21e4	-0.011543725
98	0x3aeae6fa	0.001792162
99	0xbcbd5e99	-0.023116397
100	0x3b101761	0.002198659
101	0x3cc9cd58	0.024634048
102	0x3c85719b	0.016289523
103	0x3c150f53	0.009097892
104	0x3c4ccb40	0.01249963
105	0xbb7a955c	-0.0038235998
106	0xbbf4dba7	-0.0074724737
107	0x3c4c0743	0.012452903
108	0xbc7eb9bb	-0.015547211
109	0xbbc99808	-0.0061521567
110	0x3b36d3df	0.002789728
111	0xbc04c557	-0.00810369
112	0xbbb20e8d	-0.0054338635
113	0x3bfc481a	0.007699025
114	0xba8fe9d6	-0.0010979723
115	0x3c46b06e	0.012127025
116	0xbc93c49d	-0.018038088
117	0x3ba55ba6	0.0050463257
118	0xbb7914ee	-0.003800686
119	0x3b8c7844	0.0042867977
120	0x3bde5892	0.0067854607
121	0xbc0e056e	-0.008668287
122	0x3c436b1f	0.011927395
123	0xbc5ada3c	-0.013357695
124	0x3c352956	0.011057219
125	0xbb980536	-0.004639293
126	0xbc1a1716	-0.009404918
127	0x3ab07987	0.0013463952
128	0x3c42730f	0.011868252
129	0xbc609b05	-0.013708835
130	0xbbcd40b7	-0.006263818
131	0xbb026721	-0.0019897895
132	0xbbfe9301	-0.007768989
133	0x3c22cbf4	0.0099363215
134	0xbc93fb55	-0.01806418
135	0xbccdd6d1	-0.025126847
136	0x3c349628	0.011022128
137	0x3bd70b44	0.0065626223
138	0x3bcb1fbf	0.006198853
139	0xbc253023	-0.0100822775
140	0xba419ade	-0.0007385443
141	0x3bcbd4f7	0.0062204557
142	0x3bfb84bb	0.007675735
143	0xbc9d79f7	-0.019223196
144	0xbb3a6e5d	-0.002844713
145	0x383ad23a	4.4541644e-05
146	0xbbc3c093	-0.0059738844
147	0x3c0b9b7e	0.008520959
148	0x3c53e07d	0.01293194
149	0xbc590b95	-0.01324739
150	0xbc2ed1e1	-0.010670156
151	0xbb9fc7b9	-0.0048761037
152	0x3c236d8a	0.009974847
153	0x3bea1560	0.0071436614
154	0x3c66f957	0.014097533
155	0xbc90fdbf	-0.01769912
156	0xbc08ad91	-0.008342163
157	0xbbd76b58	-0.0065740757
158	0xbb2fe468	-0.0026839022
159	0xba5dba3f	-0.0008458234
160	0x3c0fde7f	0.008781075
161	0x3bc1b838	0.005911853
162	0xbc1f40f4	-0.009720076
163	0x3b9724a8	0.004612524
164	0xbb997e2f	-0.0046842317
165	0x3bf2c04f	0.007408179
166	0x3c6168e8	0.013757922
167	0x3c525aaa	0.012838999
168	0x3b97cb08	0.0046323575
169	0x3ab031a4	0.0013442528
170	0xbc38fe0d	-0.011291039
171	0x3c167753	0.009183723
172	0xbb2a045d	-0.0025942542
173	0xbc61a3ea	-0.01377199
174	0x3b8185f4	0.003952736
175	0x3c207238	0.009792857
176	0xbc162829	-0.009164848
177	0x3c9dee4f	0.019278673
178	0x3c9d1290	0.01917389
179	0xbb9c3d36	-0.004768039
180	0xbc9bbe5b	-0.019011667
181	0xbc1053b7	-0.008809022
182	0xbbbc9f87	-0.005756322
183	0x3c0adaee	0.0084750485
184	0x3b28eee8	0.0025777165
185	0xbc4aaefe	-0.012370823
186	0xbbf658ac	-0.0075178947
187	0xbae68e40	-0.0017590001
188	0x3b4a3fd7	0.0030860805
189	0x3bdeef48	0.006803427
190	0x3b8d8a8b	0.004319494
191	0xbc4b9d14	-0.012427587
192	0xbb52e1b2	-0.0032177982
193	0xb9032034	-0.0001250513
194	0x3c5b9658	0.013402544
195	0xba981ffc	-0.0011606212
196	0x3c4901cb	0.012268494
197	0xbc3f2e44	-0.011668745
198	0xbc0f0f41	-0.008731664
199	0xbb82e6ea	-0.0039948123
200	0x3b97eb14	0.004636178
201	0xbbe7888c	-0.007065838
202	0xb9c5bed5	-0.0003771695
203	0xbbc5d981	-0.0060378914
204	0x3c80d88c	0.015728258
205	0xbbe8129d	-0.007082297
206	0xbc71211e	-0.014717368
207	0xbc01c6a5	-0.007920896
208	0x3b94d211	0.0045416434
209	0x3a8132ed	0.0009857096
210	0xbbcfddee	-0.0063435948
211	0xbb5beb61	-0.0033557045
212	0xbca75041	-0.02042401
213	0x3c0f3379	0.008740299
214	0xbb9c4194	-0.0047685597
215	0xbc044747	-0.0080736345
216	0xb9f2f45a	-0.00046339893
217	0x3c0d2e59	0.008617007
218	0x3bac4524	0.0052572656
219	0x3c70ec10	0.014704719
220	0x3c6c8d1b	0.014437939
221	0x3c42ff68	0.011901714
222	0x3b8240e4	0.0039750207
223	0xbc71eefc	-0.014766451
224	0x3c01d23e	0.007923661
225	0xbbc3e310	-0.0059779957
226	0xbc76ea88	-0.015070565
227	0x3bcca8e5	0.0062457197
228	0xbc5f3538	-0.013623528
229	0x3bb5116e	0.0055257594
230	0x3c02556c	0.0079549365
231	0x3acd4307	0.0015660234
232	0x3bf79a55	0.0075562396
233	0xbcb5575f	-0.022136388
234	0xbc630605	-0.013856416
235	0xbc7c525e	-0.015400497
236	0xb9f5c9ff	-0.0004688054
237	0xbc2b6fcc	-0.010463666
238	0xbbcd8da3	-0.006272988
239	0xbc51e832	-0.012811707
240	0x3c1d8d0b	0.009616147
241	0x3ce61468	0.028085902
242	0xbc3a2777	-0.011361948
243	0x3c0e4ab1	0.0086848
244	0xbc85f861	-0.016353788
245	0xbb9961b1	-0.004680835
246	0x3c4cd757	0.012502513
247	0x39b9212f	0.00035310673
248	0xbb7a8fef	-0.0038232764
249	0xbbcff960	-0.0063468665
250	0xba6d82b4	-0.0009060309
251	0x3bf0972f	0.0073422412
252	0xbc7b6647	-0.015344209
253	0x3c9bf1e2	0.019036237
254	0x3bba1a5e	0.0056794127
255	0x3b28ad8f	0.0025738215

alpha.bias f4 [2]
0	0x3ac70e81	0.0015186818
1	0xba009bdd	-0.0004906038
