torsion-fm/output/20250509_203743/checkpoints/best_model.pth (torch, 945890 bytes, 20 tensors)

0.weight f4 [640]
0	0x3f80681b	1.003177
1	0x3f7fdca2	0.99946034
2	0x3f7fbc70	0.9989691
3	0x3f80727e	1.003494
4	0x3f7fa7f2	0.9986564
5	0x3f802353	1.001078
6	0x3f804aa4	1.0022779
7	0x3f7f61f4	0.9975884
8	0x3f805e2c	1.0028739
9	0x3f7f541c	0.99737716
10	0x3f805a30	1.0027523
11	0x3f800b86	1.0003517
12	0x3f7f4e5f	0.9972896
13	0x3f804a06	1.002259
14	0x3f7f7e3b	0.9980199
15	0x3f7f9384	0.99834466
16	0x3f7f6442	0.99762356
17	0x3f8024c8	1.0011225
18	0x3f7f3cc0	0.9970207
19	0x3f7f8e9f	0.99827
20	0x3f7f4cd3	0.997266
21	0x3f806c69	1.0033084
22	0x3f7f60b1	0.99756914
23	0x3f7f81a2	0.9980718
24	0x3f802ff6	1.0014637
25	0x3f7fb28a	0.99881804
26	0x3f7f578e	0.9974297
27	0x3f7f4e6d	0.99729043
28	0x3f7f4c19	0.9972549
29	0x3f803dc3	1.0018848
30	0x3f7fd2b0	0.9993086
31	0x3f7f36e5	0.9969314
32	0x3f7f4afe	0.99723804
33	0x3f7f6a70	0.99771786
34	0x3f801cf8	1.000884
35	0x3f7fb8e3	0.9989149
36	0x3f80158a	1.0006573
37	0x3f80686f	1.0031871
38	0x3f7f5b14	0.9974835
39	0x3f8036a9	1.0016681
40	0x3f801c18	1.0008574
41	0x3f805bb5	1.0027987
42	0x3f8057c1	1.002678
43	0x3f7fa510	0.9986124
44	0x3f7f959e	0.9983767
45	0x3f7f77b5	0.99792033
46	0x3f80548c	1.0025802
47	0x3f803415	1.0015894
48	0x3f800ca3	1.0003856
49	0x3f7fb88e	0.99890983
50	0x3f800ae9	1.000333
51	0x3f7f18ab	0.99647015
52	0x3f8024a5	1.0011183
53	0x3f8033a0	1.0015755
54	0x3f7f770a	0.99791014
55	0x3f7fd324	0.9993155
56	0x3f7f4d95	0.99727756
57	0x3f7f56e2	0.9974195
58	0x3f7f79cd	0.9979523
59	0x3f7fc24d	0.99905854
60	0x3f7f5e89	0.99753624
61	0x3f806b96	1.0032833
62	0x3f7fc578	0.9991069
63	0x3f80239f	1.0010871
64	0x3f7f58df	0.9974498
65	0x3f8035f2	1.0016463
66	0x3f8000b6	1.0000217
67	0x3f802631	1.0011655
68	0x3f7f587a	0.9974438
69	0x3f801766	1.0007141
70	0x3f7f8213	0.9980785
71	0x3f805175	1.0024859
72	0x3f802bb0	1.0013332
73	0x3f805bd4	1.0028024
74	0x3f8058b0	1.0027065
75	0x3f803717	1.0016812
76	0x3f7f5677	0.9974131
77	0x3f806405	1.0030524
78	0x3f7f6c11	0.9977427
79	0x3f803420	1.0015907
80	0x3f7fa896	0.99866617
81	0x3f80019b	1.000049
82	0x3f8066ea	1.0031407
83	0x3f7f6a74	0.9977181
84	0x3f804b7d	1.0023037
85	0x3f7f8189	0.9980703
86	0x3f7f6051	0.9975634
87	0x3f805243	1.0025104
88	0x3f7fe66e	0.9996098
89	0x3f7f2bf6	0.99676454
90	0x3f7f79f5	0.99795467
91	0x3f806045	1.0029379
92	0x3f8003d8	1.0001173
93	0x3f801c13	1.0008568
94	0x3f80506c	1.0024543
95	0x3f7f6eec	0.9977863
96	0x3f7ff5e5	0.9998458
97	0x3f80476d	1.0021797
98	0x3f7f8a52	0.99820435
99	0x3f8061c9	1.0029842
100	0x3f80390f	1.0017413
101	0x3f7f66b0	0.99766064
102	0x3f7fe7a5	0.99962837
103	0x3f805ec9	1.0028926
104	0x3f805d0b	1.0028394
105	0x3f806333	1.0030273
106	0x3f7f771a	0.9979111
107	0x3f805e98	1.0028868
108	0x3f806003	1.00293
109	0x3f7f79d1	0.9979525
110	0x3f7f680f	0.99768156
111	0x3f7f76d9	0.9979072
112	0x3f804168	1.001996
113	0x3f80684c	1.0031829
114	0x3f7f4619	0.99716336
115	0x3f804593	1.0021232
116	0x3f7f8b96	0.99822366
117	0x3f7f2f00	0.9968109
118	0x3f805801	1.0026857
119	0x3f806997	1.0032223
120	0x3f7f7619	0.9978958
121	0x3f801e4d	1.0009247
122	0x3f7ff630	0.9998503
123	0x3f80396c	1.0017524
124	0x3f7fbc2e	0.99896514
125	0x3f7f4e9f	0.9972934
126	0x3f7f8ae6	0.9982132
127	0x3f7f551b	0.99739236
128	0x3f802cd3	1.0013679
129	0x3f803a36	1.0017765
130	0x3f7fcaaa	0.99918616
131	0x3f803fb2	1.0019438
132	0x3f804a00	1.0022583
133	0x3f7f5e94	0.9975369
134	0x3f803168	1.0015078
135	0x3f802921	1.0012552
136	0x3f803cc7	1.0018548
137	0x3f800613	1.0001854
138	0x3f8046de	1.0021627
139	0x3f7fb97f	0.9989242
140	0x3f7f42f8	0.9971156
141	0x3f7f5670	0.9974127
142	0x3f805790	1.0026722
143	0x3f7fbb17	0.9989485
144	0x3f8052d2	1.0025275
145	0x3f7f528b	0.99735326
146	0x3f7f374a	0.9969374
147	0x3f805370	1.0025463
148	0x3f800b16	1.0003383
149	0x3f803d4f	1.001871
150	0x3f80425d	1.0020252
151	0x3f805ea9	1.0028888
152	0x3f7fc38f	0.99907774
153	0x3f7fc137	0.999042
154	0x3f7f2e07	0.9967961
155	0x3f7f5a95	0.9974759
156	0x3f804583	1.0021213
157	0x3f80445f	1.0020865
158	0x3f7f437e	0.9971236
159	0x3f7f4b52	0.99724305
160	0x3f7f987c	0.9984205
161	0x3f7fabca	0.99871504
162	0x3f7f9a8d	0.998452
163	0x3f8055df	1.0026206
164	0x3f7f47d1	0.9971896
165	0x3f8020aa	1.0009968
166	0x3f804ef9	1.00241
167	0x3f803196	1.0015132
168	0x3f8051c9	1.0024959
169	0x3f7f5abf	0.9974784
170	0x3f7f374d	0.9969376
171	0x3f805e3b	1.0028757
172	0x3f8058a8	1.0027056
173	0x3f8012bc	1.0005717
174	0x3f805977	1.0027303
175	0x3f7f5393	0.997369
176	0x3f8066b8	1.0031347
177	0x3f80250d	1.0011307
178	0x3f803f43	1.0019306
179	0x3f802e98	1.0014219
180	0x3f8016c5	1.0006949
181	0x3f803e7d	1.001907
182	0x3f804c50	1.0023289
183	0x3f7f4381	0.9971238
184	0x3f7fbc76	0.99896944
185	0x3f7f7e5c	0.99802184
186	0x3f7f4383	0.9971239
187	0x3f7f1b48	0.99651
188	0x3f7f7b67	0.9979767
189	0x3f80356b	1.0016302
190	0x3f7f6511	0.9976359
191	0x3f7f6043	0.9975626
192	0x3f8021b8	1.001029
193	0x3f8014cb	1.0006346
194	0x3f7f6c1d	0.9977434
195	0x3f80192d	1.0007683
196	0x3f7f07b7	0.99621147
197	0x3f7f8546	0.99812734
198	0x3f804e2a	1.0023854
199	0x3f7f1250	0.9963732
200	0x3f7fd2d6	0.99931085
201	0x3f7f6316	0.9976057
202	0x3f7f94b9	0.9983631
203	0x3f805c48	1.0028162
204	0x3f805b5d	1.0027882
205	0x3f805acc	1.0027709
206	0x3f7f83c5	0.9981044
207	0x3f7f2b49	0.9967542
208	0x3f7f93b7	0.9983477
209	0x3f80147a	1.0006249
210	0x3f7f5e01	0.99752814
211	0x3f804313	1.002047
212	0x3f7f4c06	0.9972538
213	0x3f7f3d59	0.99702984
214	0x3f7f5085	0.9973224
215	0x3f8056da	1.0026505
216	0x3f803465	1.001599
217	0x3f7f349f	0.9968967
218	0x3f8028bf	1.0012435
219	0x3f7f522a	0.9973475
220	0x3f7fe225	0.99954444
221	0x3f800d9f	1.0004157
222	0x3f806efe	1.0033872
223	0x3f7fbf0a	0.9990088
224	0x3f804548	1.0021143
225	0x3f7f52e3	0.9973585
226	0x3f7f9f56	0.998525
227	0x3f80556b	1.0026067
228	0x3f8042cb	1.0020384
229	0x3f7f3763	0.9969389
230	0x3f7f40f9	0.99708515
231	0x3f7f633d	0.997608
232	0x3f8046e9	1.002164
233	0x3f801093	1.0005058
234	0x3f805309	1.002534
235	0x3f800aa8	1.0003252
236	0x3f8054a7	1.0025834
237	0x3f806655	1.0031229
238	0x3f803481	1.0016023
239	0x3f803888	1.0017252
240	0x3f80100f	1.0004901
241	0x3f7f6438	0.99762297
242	0x3f7fb639	0.99887425
243	0x3f7fed2c	0.9997127
244	0x3f7f64ea	0.9976336
245	0x3f7fce71	0.9992438
246	0x3f803041	1.0014726
247	0x3f7f80cf	0.9980592
248	0x3f805e02	1.0028689
249	0x3f7f8510	0.9981241
250	0x3f7f62f8	0.9976039
251	0x3f7fc74b	0.9991347
252	0x3f7f74c2	0.99787533
253	0x3f804857	1.0022076
254	0x3f8001f6	1.0000598
255	0x3f7fe170	0.99953365

0.bias f4 [640]
0	0x3b4e8648	0.0031513143
1	0x3b59b2d4	0.0033218162
2	0xb9fe4cf9	-0.00048504004
3	0xbb5d9fe5	-0.0033817228
4	0x3b0089de	0.0019613425
5	0x3b44cf3d	0.003003075
6	0x3b5764a0	0.0032866374
7	0xbb2cd1e0	-0.0026370212
8	0xbb475626	-0.0030416339
9	0x3b4a0538	0.0030825865
10	0xbb5cf995	-0.0033718098
11	0xba82648f	-0.0009948182
12	0xbb36c27a	-0.0027886913
13	0x3b24b661	0.002513312
14	0xbaadbea3	-0.0013255667
15	0xbb0e0cc5	-0.0021675092
16	0x3b54cd7a	0.0032471106
17	0x3ac19750	0.0014769826
18	0xbb4049d6	-0.0029340885
19	0xbb4b031e	-0.00309772
20	0x3b3f308e	0.0029173228
21	0xbb6f20a7	-0.0036487968
22	0x3b33c9cb	0.002743351
23	0xbaa839ac	-0.001283457
24	0xbb5e04f7	-0.003387747
25	0x3a95efd8	0.0011439277
26	0x39ae0aa9	0.0003319581
27	0x3b3a14a7	0.0028393657
28	0x3b39d827	0.0028357597
29	0x3b2b0f78	0.002610175
30	0xba0a531d	-0.0005276667
31	0xbb3b6e90	-0.0028599836
32	0x3b38f42d	0.0028221712
33	0xbb4e14c5	-0.0031445485
34	0x3b22e800	0.002485752
35	0x3b1e5fe8	0.0024166051
36	0x3a8107b9	0.000984422
37	0xbb52755f	-0.0032113416
38	0x3b3e94ca	0.0029080384
39	0x3b0ede1d	0.002179987
40	0xb9211890	-0.00015363307
41	0xbb513556	-0.003192266
42	0xbb48178f	-0.003053162
43	0xbb1a985b	-0.0023589346
44	0xbb63fe11	-0.0034788887
45	0x3b1c6f1a	0.0023869933
46	0xbb3169b8	-0.002707107
47	0x3b2c0e28	0.0026253555
48	0xbaf106c3	-0.0018388856
49	0xbb0da9f0	-0.0021616183
50	0x3b2e7761	0.0026621448
51	0xbb5b4dcb	-0.0033463116
52	0x3b000d33	0.0019539117
53	0x3b48764d	0.003058809
54	0x3b1d4302	0.0023996239
55	0xbada87b8	-0.0016672527
56	0xbb45d58a	-0.0030187094
57	0x3b2b2c6c	0.0026119007
58	0xbabe8e20	-0.0014538206
59	0x3b2b54c0	0.0026143044
60	0x3b1f9164	0.0024348134
61	0x3b58baf7	0.0033070424
62	0xba20fe78	-0.00061414344
63	0x3b646dfa	0.003485559
64	0xbb3f4f5f	-0.0029191596
65	0xbb41f9ef	-0.0029598435
66	0x3ad5b288	0.0016303817
67	0xba433bb1	-0.00074475544
68	0x3b24d0f8	0.002514897
69	0x3a92f717	0.0011212555
70	0x3b520cca	0.003205108
71	0x3b2d5cbf	0.0026452986
72	0xbb572690	-0.0032829382
73	0xbb4bdcf0	-0.003110703
74	0x3b48744a	0.0030586892
75	0xbb2580f0	-0.0025253855
76	0xbb1de189	-0.0024090728
77	0x3b46a994	0.0030313479
78	0xbb4097c2	-0.002938733
79	0x3b482253	0.0030538037
80	0xbb3f170a	-0.002915802
81	0xbb53a2dc	-0.0032293117
82	0x3b456137	0.003011776
83	0x3b33b467	0.002742076
84	0x3b2057ee	0.0024466473
85	0x3b13ece0	0.0022571608
86	0x3b1b19f4	0.0023666592
87	0xbac381f4	-0.0014916048
88	0xb99178b7	-0.00027746495
89	0x3b4feb22	0.0031725843
90	0x3abd7a60	0.0014456026
91	0x3b571436	0.0032818443
92	0x3a0863e6	0.00052028743
93	0x3b35059e	0.0027621756
94	0xbb510cd8	-0.0031898525
95	0xbb0148e0	-0.0019727275
96	0xbaa222b8	-0.0012369966
97	0xbb1858c2	-0.0023246263
98	0x3aa36ddb	0.0012468653
99	0x3b4c02cd	0.00311296
100	0xb988a91f	-0.00026065946
101	0xbb29570a	-0.0025839233
102	0xbb4b36b6	-0.0031007952
103	0xbb4837c5	-0.003055082
104	0xbb66048e	-0.003509793
105	0xbb3caef9	-0.0028790815
106	0x3b2504a4	0.0025179768
107	0xbb512ba9	-0.0031916893
108	0x3b5491da	0.0032435567
109	0xba84168f	-0.0010077524
110	0xb9ddf6e4	-0.00042336353
111	0xb935a0a9	-0.00017321356
112	0x3b3bfe98	0.0028685685
113	0xbb60ff2a	-0.0034331777
114	0xbb2ecfdc	-0.0026674187
115	0xbb3d1bf6	-0.0028855777
116	0x3b23c4c0	0.0024989098
117	0x3b55e592	0.0032638055
118	0xbb38eb37	-0.002821637
119	0x3b838d42	0.004014642
120	0x3afe2043	0.0019388277
121	0x3b48507e	0.0030565555
122	0x39ba23f5	0.00035503475
123	0x3b4be330	0.0031110756
124	0xbb46b33b	-0.0030319232
125	0x3b1985e6	0.0023425757
126	0x3b4bff76	0.0031127608
127	0xba813cce	-0.000986004
128	0xba64130a	-0.0008700347
129	0x3a851548	0.0010153437
130	0xbb5001b5	-0.0031739299
131	0x3b20d3c8	0.0024540294
132	0x3b210ad6	0.002457311
133	0x3b1a70b5	0.0023565714
134	0x3a37800a	0.00069999753
135	0xbaeaf3db	-0.0017925458
136	0x3b4b3458	0.003100654
137	0xb970969e	-0.00022944293
138	0xbb5699db	-0.0032745514
139	0xba9036fc	-0.0011002715
140	0x3b40b89f	0.0029406918
141	0xbb23083d	-0.0024876737
142	0xbb541a6b	-0.003236438
143	0x39e26530	0.0004318147
144	0xbb32f172	-0.0027304557
145	0x3b2d9589	0.0026486835
146	0xbb4aaf67	-0.0030927302
147	0xbb12ef6a	-0.0022420534
148	0xbb66c5ab	-0.0035213034
149	0x3adbf677	0.0016781826
150	0xbb32d43c	-0.0027287146
151	0xbb5c8f94	-0.0033654915
152	0xbaf0cb63	-0.0018371161
153	0xbb13b18a	-0.0022536241
154	0xbb1985e1	-0.0023425745
155	0x3b3314ba	0.0027325586
156	0xbb1787b7	-0.0023121664
157	0x3b10678f	0.0022034382
158	0x3b3c057a	0.0028689788
159	0xbb25b6f5	-0.0025286053
160	0xbb1de348	-0.002409177
161	0x3ad2f928	0.0016095983
162	0x3b2be3fe	0.0026228423
163	0xbb52546a	-0.0032093772
164	0x3b3eebc6	0.002913223
165	0x3af274fc	0.0018497999
166	0xbb43a27e	-0.0029851492
167	0xbb4cb493	-0.003123556
168	0xbb2f5479	-0.002675323
169	0x3ae3874b	0.0017359046
170	0xbb392298	-0.002824938
171	0x3b4d14eb	0.0031292986
172	0x3b4528f8	0.0030084234
173	0xbab1d366	-0.001356703
174	0xbb430d90	-0.0029762723
175	0xbb21d031	-0.0024690742
176	0xbb535f32	-0.0032252786
177	0x3832dac8	4.2642263e-05
178	0xbb1aa1f9	-0.0023595078
179	0x3b569d60	0.0032747611
180	0x3b5a6e97	0.0033330077
181	0xbb690eb5	-0.0035561745
182	0xbb72b51b	-0.0037034217
183	0x3b5b529c	0.0033465987
184	0xbb5aeda5	-0.0033405807
185	0xba668c9e	-0.00087947573
186	0x3b54735e	0.0032417397
187	0x3b5f0317	0.0034028941
188	0x3b4499ec	0.002999897
189	0x3b320b88	0.0027167518
190	0x3b2a719f	0.0026007665
191	0x3b1750e8	0.0023088995
192	0xbafed9e7	-0.0019443602
193	0x3b63e9e1	0.0034776854
194	0x3b206037	0.002447141
195	0x3b2256cd	0.0024770976
196	0x3b5b5a34	0.0033470513
197	0x3af34d89	0.0018562536
198	0x3b55a6fd	0.0032600753
199	0xbb68e6f1	-0.0035538042
200	0x3a173b4d	0.00057690294
201	0x3b233b04	0.0024907002
202	0xbb4be33f	-0.003111079
203	0xbb20b319	-0.0024520813
204	0xbb38e25f	-0.00282111
205	0xbb33ff95	-0.0027465571
206	0x3b2b3ed4	0.0026129978
207	0xbb4e97b0	-0.0031523518
208	0x3b5d7058	0.0033788886
209	0xbb1350c8	-0.002247857
210	0x3b357eba	0.0027693943
211	0x3b32ee0d	0.0027302534
212	0xbb3ed2b2	-0.0029117283
213	0xbb47db7f	-0.003049582
214	0xb9916d42	-0.0002773796
215	0xbb34a73f	-0.0027565507
216	0x3ade294b	0.0016949562
217	0x3b392c5a	0.0028255195
218	0x3b352eb6	0.002764625
219	0xbb4aebca	-0.0030963295
220	0x38b4b91d	8.617549e-05
221	0xba30d98b	-0.00067462836
222	0x3b6bc5c0	0.0035976022
223	0xb8b09d24	-8.421604e-05
224	0xbb416e97	-0.002951538
225	0xbb5dbefd	-0.0033835762
226	0x3b2a9365	0.0026027795
227	0xbb451d1a	-0.003007716
228	0xbb0e172e	-0.0021681297
229	0x3b4c74cc	0.0031197546
230	0xbb3a4a3e	-0.00284256
231	0x3b381c8b	0.0028093185
232	0xbb3392e6	-0.002740079
233	0xbb119fff	-0.002222061
234	0x3b448105	0.0029984128
235	0x3b3c2718	0.0028709825
236	0xbb4a12d0	-0.0030833967
237	0xbb2c9e19	-0.002633935
238	0xbb512355	-0.0031911929
239	0x3b4b32c1	0.0031005593
240	0x3ab0a03f	0.0013475491
241	0xbb35a96e	-0.0027719396
242	0xbaa899e5	-0.0012863247
243	0xbb3bbaaa	-0.0028645196
244	0x3b149a3e	0.0022674943
245	0xbafcf8f5	-0.0019300269
246	0x3b1a4ac8	0.0023543108
247	0x3b23514b	0.002492028
248	0xbb53dd74	-0.0032328041
249	0x3b0fc2d3	0.0021936193
250	0xbb19e2af	-0.0023481061
251	0x3b3b874b	0.0028614576
252	0x3b08c62d	0.0020870075
253	0xbb41037f	-0.0029451547
254	0x3b1f44a3	0.0024302385
255	0xba9b27b9	-0.00118374

1.weight f4 [256, 640]
0	0xbd12f356	-0.035876594
1	0xbbc9f5f3	-0.0061633526
2	0xbd506ba5	-0.050883908
3	0xbc410e3a	-0.011783177
4	0xbc0c32e1	-0.008557052
5	0x3d2ec488	0.042667896
6	0xbcc1c026	-0.023651194
7	0x3d00f63c	0.031484827
8	0x3d2e58d0	0.042565167
9	0x3d89dc49	0.06731469
10	0x3cf6eeaf	0.03014311
11	0x3d310a8a	0.04322294
12	0x3dc89712	0.097944394
13	0x3d9909bd	0.074725606
14	0xbcbfb67f	-0.02340245
15	0x3da5a7ba	0.08088632
16	0xbd3cac31	-0.046062652
17	0xbc236e02	-0.009974958
18	0x3cb99888	0.02265574
19	0xbd144319	-0.0361968
20	0x3cbd1bfc	0.023084633
21	0xbd83ea94	-0.064412266
22	0x3d2ef920	0.042718053
23	0x3d03328e	0.032030635
24	0x3ab7a123	0.0014009814
25	0xbc4e9a8d	-0.01261009
26	0x3c310bba	0.0108060185
27	0xbd0356a5	-0.032065053
28	0x3d8f0ea1	0.06985212
29	0xbd673ad7	-0.0564526
30	0xbc156e7c	-0.00912058
31	0xbd1af5d7	-0.037832107
32	0x3db666d5	0.089063324
33	0x3bea9037	0.007158305
34	0x3d927e70	0.07153022
35	0xbd283091	-0.04106194
36	0x3d010e5c	0.031507835
37	0x3d8b362a	0.0679744
38	0xbc81510b	-0.015785715
39	0xbcefcb03	-0.029271608
40	0x3d3da478	0.046299428
41	0x3bca1ff1	0.0061683585
42	0x3d395030	0.04524249
43	0x3dcc77ab	0.09983762
44	0x3c4b4bf9	0.01240825
45	0xbd4c12f5	-0.049822766
46	0xbbca2842	-0.00616935
47	0x3d2e143e	0.042499773
48	0xbd066081	-0.032806877
49	0xbd393540	-0.0452168
50	0x3d77882c	0.060432598
51	0x3dbc9303	0.09207728
52	0xbd2322a0	-0.039827943
53	0x3d0a4b6c	0.033763334
54	0x3d02fb57	0.031977978
55	0x3c92a4e1	0.017900886
56	0xbcd6715b	-0.026177099
57	0xbe03cd89	-0.12871374
58	0xbd119661	-0.035543803
59	0xbcf15a32	-0.029461954
60	0xbd297c3f	-0.041378256
61	0xbdbd3178	-0.09237951
62	0xbd40630d	-0.046969462
63	0xba6d09ef	-0.0009042313
64	0xbcdf0392	-0.027223382
65	0xbd22790c	-0.03966622
66	0xbd9e9d28	-0.07744819
67	0x3d20b591	0.039235655
68	0x3ca2b454	0.019861378
69	0xbdb5018a	-0.08838184
70	0x3d470b5d	0.04859482
71	0x3d7a8276	0.061159573
72	0xbc5b81fb	-0.013397689
73	0xbabe598a	-0.0014522534
74	0x3c73dc0a	0.014884004
75	0xbc55876b	-0.013032774
76	0xbd0612b7	-0.03273269
77	0xbd103c60	-0.035213828
78	0x3dc415ca	0.095744684
79	0x3c1ca9da	0.00956198
80	0x3dc1edda	0.09469195
81	0x3d4184c1	0.047245745
82	0xbdc0369a	-0.093854144
83	0x3d6b9850	0.057518303
84	0x3d3bc25c	0.045839652
85	0x3d23656b	0.03989164
86	0x3d7b1f01	0.061308865
87	0xbd397518	-0.045277685
88	0xbcf14b6e	-0.029454913
89	0xbdead3c7	-0.114661746
90	0xbd307cc4	-0.043087736
91	0x3cf9d550	0.030497223
92	0x3d96b2d8	0.073583305
93	0xbd14369d	-0.036184896
94	0x3b79e4c3	0.0038130737
95	0xbd46d279	-0.048540566
96	0xbcdf5bd7	-0.027265472
97	0x3de201b0	0.11035478
98	0xbdbed068	-0.09317094
99	0x3d2c93d2	0.04213316
100	0x3de7fcda	0.113275245
101	0x3d3dfb72	0.046382375
102	0xbdf7c02e	-0.12097202
103	0x3c6ddf96	0.014518639
104	0x3d699ab5	0.057032306
105	0x3d8cbe90	0.068722844
106	0x3dbc7a89	0.09203059
107	0x3da35254	0.07974687
108	0xbc3b115b	-0.011417712
109	0xbca6162d	-0.020274246
110	0xbce5fc1b	-0.028074315
111	0xbdfb8f53	-0.12283196
112	0x3d067867	0.03282967
113	0xbddb75d0	-0.1071583
114	0x3cb9eaae	0.022694912
115	0x3db49fa2	0.0881951
116	0x3d93bb8b	0.07213505
117	0xbdbd571d	-0.09245131
118	0xbd4b4c91	-0.049633566
119	0xbd8e9211	-0.06961454
120	0xbc7dbba4	-0.015486632
121	0xbddabd1c	-0.10680601
122	0xbd9bb1ce	-0.07602273
123	0x3ce3061b	0.027712872
124	0xbd3a321f	-0.045457955
125	0x3ce240f6	0.027618866
126	0xbca69e2d	-0.020339096
127	0x3cadbe3f	0.02120888
128	0xbdae03a2	-0.08496787
129	0xbc47d60d	-0.01219703
130	0xbc5a4b51	-0.013323621
131	0xbb975090	-0.004617758
132	0xbd297b8b	-0.041377585
133	0x3ccbc050	0.024871975
134	0x3de4b07a	0.11166473
135	0xbdd88825	-0.105728425
136	0xbca7c61d	-0.02048021
137	0x3c89aa1f	0.016804753
138	0x3cc964cf	0.024584202
139	0x3cbe3b5d	0.023221666
140	0x3d73f0cd	0.059555817
141	0x3b33a04c	0.0027408777
142	0x3d36c16d	0.04461806
143	0xbb140a1f	-0.002258904
144	0xbd516b4b	-0.051127713
145	0xbcdf09ba	-0.027226318
146	0xbb99261c	-0.0046737324
147	0x3d2ac9af	0.041696247
148	0x3d367b6d	0.0445513
149	0x3d244b58	0.040110916
150	0x3d7622ba	0.06009171
151	0x3d9461af	0.07245194
152	0xbcba182c	-0.022716604
153	0xbc74bad4	-0.014937121
154	0xbdd7f8a7	-0.105454735
155	0xbd8b11e9	-0.067905255
156	0x3be20d61	0.0068985675
157	0xbcc0f1a1	-0.023552718
158	0xbd517209	-0.051134143
159	0x3dbd3d9f	0.09240269
160	0xbccc7020	-0.02495581
161	0xbdc2ef67	-0.095183186
162	0x3bd2cfdd	0.0064334706
163	0xbcf8ed93	-0.030386722
164	0x3d57722a	0.05259911
165	0x3d486523	0.048924576
166	0xbd3e16d9	-0.046408508
167	0x3d90794b	0.07054385
168	0xbd81a988	-0.06331164
169	0x3c066c9e	0.008204607
170	0xbc515249	-0.012775966
171	0x3d430e9b	0.04762135
172	0xbce1e532	-0.02757511
173	0xbd633fe7	-0.055480864
174	0x3dd4de19	0.10393924
175	0xbdc287af	-0.09498536
176	0x3d87625c	0.066105574
177	0xbd1580ed	-0.036499906
178	0xbd35f382	-0.04442168
179	0xbd5e0213	-0.054201197
180	0x3bf389d0	0.0074322
181	0xbc689189	-0.014194855
182	0xbd3108ae	-0.04322117
183	0x3e2f3eaf	0.17113756
184	0x3ce92374	0.028459288
185	0xbc77a221	-0.015114338
186	0x3c4d193b	0.012518222
187	0x3c2aad7c	0.010417338
188	0xbca44275	-0.02005122
189	0xbda1a975	-0.078936495
190	0x3d0755c8	0.03304079
191	0x3c2413df	0.010014503
192	0x3d4a7b83	0.049434196
193	0x3c281276	0.010258308
194	0x3dc6b3b8	0.097022474
195	0xbd706a78	-0.058695287
196	0xbc99d44f	-0.018777994
197	0x3cf24b2f	0.029576866
198	0x3d0f155e	0.034932487
199	0xbd3b8c13	-0.045787882
200	0x3c52e417	0.012871764
201	0xbcbe23da	-0.023210455
202	0x3e0f56d4	0.13997966
203	0x3c68318f	0.014171972
204	0xbd3b2409	-0.045688663
205	0xbc755acf	-0.014975264
206	0xbd405b42	-0.04696203
207	0xbd175d3f	-0.03695416
208	0xbe1ea13d	-0.15491195
209	0xbd0610dd	-0.032730926
210	0x3ca099f2	0.019604657
211	0xbd3800c5	-0.04492261
212	0x3c7e376b	0.015516142
213	0x3d1388ce	0.03601914
214	0xbc47b8f4	-0.012190092
215	0x3d500136	0.050782405
216	0xbd6def5e	-0.058089606
217	0x3d916f6e	0.07101332
218	0x3d0ca084	0.034332767
219	0xbde641ef	-0.112430446
220	0x3df14cc3	0.11782219
221	0xbd18bdc1	-0.03729034
222	0xbcbe114c	-0.023201607
223	0x3c79f058	0.015255056
224	0x3dbbf0e3	0.09176805
225	0xbbd7c659	-0.006584924
226	0x3d37cb43	0.04487158
227	0x3d35cd9d	0.04438554
228	0xbd92f2eb	-0.07175239
229	0x3df794cc	0.120889276
230	0xbc085bc4	-0.00832266
231	0xbc940ee3	-0.018073505
232	0xbc6dd98b	-0.014517198
233	0xbd012904	-0.031533256
234	0x3ac9b3f2	0.0015388711
235	0x3de0b94f	0.10972845
236	0xbd7ab86c	-0.061211035
237	0xbda7e8a2	-0.08198668
238	0x3d3b209a	0.04568539
239	0x3c8a4d14	0.016882457
240	0xbcd12389	-0.02552964
241	0x3da3d3dd	0.07999394
242	0x3af9e38b	0.0019065005
243	0x3ca8bfd5	0.020599285
244	0x3cfbd9fe	0.030743595
245	0xbd1e7e47	-0.038694646
246	0x3c43df21	0.011955054
247	0xbe16a5aa	-0.14711633
248	0xbd3cba7f	-0.046076294
249	0x3c52d1ba	0.0128673855
250	0xbd07f832	-0.033195682
251	0x3c9db3ec	0.019250832
252	0xbc825a47	-0.015912188
253	0x3c144819	0.009050393
254	0xbbb45986	-0.005503836
255	0x3d84090c	0.06447038

1.bias f4 [256]
0	0xbaf42486	-0.0018626607
1	0x3b2de892	0.0026536328
2	0xbada203c	-0.0016641687
3	0x3b2819bf	0.0025650111
4	0xbb11ef44	-0.0022267858
5	0xbb53f514	-0.0032342123
6	0x3b59073f	0.0033115891
7	0xbabfa02b	-0.0014619877
8	0x3b35fee2	0.002777033
9	0x3b2ef7c8	0.0026697982
10	0x3a56365b	0.0008171552
11	0xbb02db79	-0.0019967242
12	0x3b5723b8	0.0032827687
13	0xb854486a	-5.061218e-05
14	0x3b2903df	0.002578966
15	0x3b7582e2	0.0037462045
16	0xbb302881	-0.002687961
17	0xbb5f29a8	-0.0034051929
18	0x3b002f66	0.0019559502
19	0xba4ad3bc	-0.00077372394
20	0x3ad86dae	0.0016512179
21	0x3ae16a69	0.001719785
22	0xbaf9586b	-0.0019023543
23	0xbb500c94	-0.0031745778
24	0x3b49fbbf	0.0030820218
25	0xbb2b12c0	-0.0026103705
26	0xb99a1984	-0.0002939218
27	0xbaf5d4be	-0.0018755419
28	0x3b455aca	0.003011393
29	0x3995978e	0.00028532412
30	0xba5c8807	-0.00084126036
31	0x3b395dee	0.0028284746
32	0x3b4b9011	0.0031061212
33	0x3b38d53b	0.0028203267
34	0x3af931a6	0.0019011989
35	0xbb18df4e	-0.002332646
36	0x3b78d15e	0.003796659
37	0x3b0bccba	0.0021331743
38	0xbb454b52	-0.003010471
39	0x3b607bb0	0.003425341
40	0xbb59749d	-0.003318108
41	0xbb0d7f14	-0.0021590637
42	0xbb3739aa	-0.0027957954
43	0x3b1d3482	0.0023987596
44	0xbb3342df	-0.002735309
45	0xba82e6c3	-0.0009986985
46	0x39469735	0.0001893908
47	0x3b060b28	0.0020453427
48	0x3b5e4654	0.003391643
49	0xbb15d92b	-0.0022865038
50	0x3b4db06e	0.0031385678
51	0x3a9daf54	0.0012030401
52	0xbb227b92	-0.0024792892
53	0x39222976	0.0001546497
54	0x3b600418	0.0034182128
55	0x3b2e0f1b	0.0026559297
56	0xbb28e0e7	-0.0025768818
57	0xbb355aa5	-0.0027672437
58	0x3b3e3c6b	0.002902771
59	0x3b17a5ef	0.0023139676
60	0xba301dc0	-0.00067183
61	0xbb28f12d	-0.0025778518
62	0xbb38e974	-0.002821532
63	0x3b82fb61	0.003997252
64	0xb9dd8470	-0.00042251078
65	0x3b3a56bc	0.0028433045
66	0xbaf90312	-0.0018998107
67	0x3a68dd25	0.0008883051
68	0x3b48410e	0.0030556354
69	0xbb2316c3	-0.0024885393
70	0x3b3c4121	0.0028725343
71	0x3b1be98c	0.0023790328
72	0x3a567546	0.0008180927
73	0x3b7a477d	0.0038189583
74	0x3b52d334	0.0032169344
75	0x3afb4996	0.0019171711
76	0x3b52cac0	0.0032164305
77	0xbb1ad4e6	-0.0023625433
78	0xbac2d71a	-0.0014865131
79	0x3b2af830	0.0026087873
80	0x3b7ad263	0.0038272373
81	0x3b3afd9e	0.0028532515
82	0xbb1cc2b6	-0.0023919768
83	0xbb463ce4	-0.0030248696
84	0x3b601183	0.0034190125
85	0xbab86ff6	-0.0014071453
86	0xba46ddd2	-0.00075861544
87	0x3b24ef38	0.0025167
88	0x3b5f21b3	0.0034047186
89	0x3ae2266b	0.0017253881
90	0x3b43db0e	0.0029885205
91	0x3b348314	0.002754395
92	0xbb3aa2d4	-0.00284784
93	0xba253f74	-0.0006303706
94	0x3a372f6a	0.0006987961
95	0x3b6085e6	0.0034259497
96	0xbb40f79d	-0.0029444464
97	0x3b19f88b	0.002349409
98	0xb9de44fa	-0.0004239453
99	0x3b11a3cc	0.0022222875
100	0xbaa4984a	-0.0012557593
101	0xbb13c731	-0.0022549147
102	0xba90d6f0	-0.0011050384
103	0x3b80ed6b	0.0039345524
104	0x39bfe4d9	0.00036600864
105	0x3b3cfcd3	0.0028837218
106	0x3ac11413	0.0014730714
107	0x3b240744	0.0025028745
108	0x3b4e4e50	0.0031479783
109	0xbb2179c3	-0.0024639226
110	0x3ada44b4	0.0016652555
111	0x3ad2b86c	0.001607669
112	0xbb4ed58a	-0.0031560385
113	0x3b3a4398	0.0028421637
114	0x3b3c0b94	0.0028693425
115	0x3b25845e	0.00252559
116	0xbb3f01ab	-0.0029145281
117	0x3b54c9e8	0.0032468978
118	0x3aa4b125	0.0012565
119	0x3a0102d9	0.0004921384
120	0xbb14eb4d	-0.0022723258
121	0xbb4ddf00	-0.0031413436
122	0xba7b0240	-0.00095752254
123	0xba15f858	-0.0005720905
124	0x3ae44482	0.0017415436
125	0x39312b0e	0.00016896075
126	0x3b6f2d51	0.0036495517
127	0x3b4acdbc	0.003094538
128	0x3b19eb7a	0.0023486302
129	0x3b4114f1	0.0029461945
130	0x3b69ccdb	0.0035675082
131	0x3b1c5bf1	0.0023858512
132	0x3b4e1efd	0.0031451576
133	0x3acf9604	0.0015837555
134	0x3b560c91	0.0032661299
135	0xbb531df0	-0.003221389
136	0x3b10eed1	0.0022115002
137	0xbb439612	-0.0029844088
138	0x3b612435	0.0034353856
139	0xbb1e004f	-0.002410907
140	0x3b603c99	0.0034215807
141	0xbb552dc1	-0.0032528492
142	0xba1a9891	-0.0005897368
143	0xbb36dac2	-0.0027901386
144	0x3a33247e	0.0006833746
145	0x3b3a45ea	0.002842302
146	0x39f19725	0.00046079714
147	0xbae93803	-0.0017793182
148	0xbb3f9f9c	-0.0029239422
149	0x3b4c2201	0.0031148198
150	0x3b338a03	0.0027395494
151	0xbada7cac	-0.0016669235
152	0xba98fd64	-0.0011672196
153	0x3b3e6789	0.002905341
154	0x3b1eca54	0.0024229484
155	0xbb1468a5	-0.002264538
156	0x3b5286af	0.0032123735
157	0xbb2ae19a	-0.002607441
158	0x3b396086	0.0028286292
159	0x3b2ad373	0.0026065975
160	0xbad1a0f5	-0.0015993404
161	0xbb235ff6	-0.0024929023
162	0xb80d944e	-3.375514e-05
163	0xbb3784d3	-0.0028002753
164	0xba50c29f	-0.0007963571
165	0x3b0fd12a	0.002194474
166	0x3b59ef83	0.0033254332
167	0x3aed633d	0.001811124
168	0xbadd3236	-0.0016875926
169	0x3b347e1e	0.0027540992
170	0x3a19a7da	0.00058614986
171	0xbb32db31	-0.0027291293
172	0xbaa487ac	-0.001255264
173	0xbb37015e	-0.00279244
174	0x3b35d52f	0.0027745476
175	0xbb38dfe0	-0.0028209612
176	0x3b0dd608	0.0021642465
177	0xbb269399	-0.0025417565
178	0x3b61a741	0.0034431966
179	0x3b503312	0.0031768722
180	0x3b511681	0.0031904283
181	0x3b1032a7	0.0022002847
182	0xbb06b77b	-0.002055614
183	0x3b48c681	0.0030635896
184	0x3af97f16	0.0019035067
185	0x3ab06c61	0.0013460034
186	0xbaeee379	-0.0018225751
187	0x3b77b204	0.0037795315
188	0x3b43bb9d	0.0029866465
189	0xbabd8a2e	-0.0014460736
190	0x3b459c66	0.0030153035
191	0x39299c55	0.00016175334
192	0xbb226c17	-0.0024783665
193	0xbb390d67	-0.0028236748
194	0x3b3cf001	0.0028829577
195	0xba944ee5	-0.0011315016
196	0xbb1bff1c	-0.002380318
197	0x3b37e113	0.0028057739
198	0xba12345d	-0.0005577261
199	0xbb2b87bb	-0.002617343
200	0x3b17108f	0.0023050641
201	0xbb01cc2f	-0.001980554
202	0xbb3104c0	-0.0027010888
203	0x3b6f5ce0	0.0036523864
204	0xbb68e162	-0.003553473
205	0xba9f4d3a	-0.0012153753
206	0xbb25d9e3	-0.0025306873
207	0x39bc86f1	0.00035958693
208	0x3b3295de	0.0027249972
209	0x3a9cc690	0.0011961032
210	0x3b8dd62b	0.0043285093
211	0xb9909ddc	-0.00027583435
212	0xbb39545a	-0.0028279037
213	0x3ae78e5e	0.001766633
214	0x3b4cae1d	0.003123171
215	0xbb001b7c	-0.0019547632
216	0x39b43a1a	0.00034375564
217	0xbb4dcb11	-0.0031401555
218	0x3a4fad2f	0.00079222297
219	0x3b5cd75c	0.00336977
220	0x3b73cfbb	0.0037202674
221	0xbb2bef59	-0.0026235192
222	0x3b4d3643	0.003131286
223	0x3ae41688	0.0017401734
224	0xbb07add8	-0.0020702984
225	0xba8d8660	-0.0010797493
226	0xb9bed33a	-0.00036397
227	0x3b892e05	0.004186394
228	0x3b2270e5	0.0024786529
229	0x3b4ad311	0.003094856
230	0xbb2724b9	-0.0025504066
231	0x3b61d09b	0.0034456614
232	0xbabf47cf	-0.0014593544
233	0x3b182172	0.0023213294
234	0x3a6a8482	0.0008946137
235	0x3b43a3c6	0.0029852255
236	0xbb0727be	-0.0020623053
237	0x3ac74e79	0.0015205882
238	0xbb2b763b	-0.0026163
239	0xb9f23e10	-0.00046204077
240	0xbb633e7a	-0.003467469
241	0x3b397395	0.0028297652
242	0xbae8ea5d	-0.0017770041
243	0xbb592e50	-0.0033139177
244	0x3aed43e1	0.0018101895
245	0xba8903e1	-0.0010453427
246	0xbb89d780	-0.004206598
247	0x3b2b30f2	0.0026121703
248	0xbb0a538b	-0.0021106924
249	0x3b1dbf99	0.00240705
250	0x3b54a1f3	0.0032445162
251	0x3b36324a	0.002780097
252	0x39e87478	0.00044337264
253	0x3b617a82	0.0034405296
254	0x3b4a935b	0.0030910585
255	0xbb03cdd2	-0.0020111692

4.weight f4 [256, 256]
0	0x3c1770f7	0.0092432415
1	0xbda9c83a	-0.08290143
2	0x3dce201d	0.10064719
3	0x3c27b584	0.010236148
4	0xbda6b3fb	-0.08139797
5	0xbe435eff	-0.19079207
6	0xbc12bab8	-0.00895565
7	0xbdc91869	-0.09819109
8	0xbab81edd	-0.0014047284
9	0xbdfcd0d7	-0.123445205
10	0xbd3c390e	-0.04595285
11	0xbdc6baba	-0.09703584
12	0xbc9f0cae	-0.019415226
13	0xbd9b88d7	-0.075944595
14	0x3dfd7278	0.12375349
15	0x3d1c6142	0.03817869
16	0xbd8aab09	-0.067709036
17	0x3d70c164	0.05877818
18	0xbe053469	-0.13008274
19	0xbd9253b4	-0.07144871
20	0xbd41a1e0	-0.047273517
21	0x3d0d0f90	0.03443867
22	0x3df0bbb7	0.11754554
23	0xbe010c5d	-0.12602372
24	0x3deb3093	0.11483874
25	0x3d2d9a5d	0.04238354
26	0xbd8de518	-0.06928462
27	0xbd758a70	-0.059946477
28	0xbe27e7cf	-0.16397022
29	0xbd44e80c	-0.04807286
30	0x3d70d2ba	0.058794715
31	0x3e604338	0.21900642
32	0x3e195677	0.1497439
33	0x3d0cdfd7	0.034393158
34	0xbd0fd29a	-0.035112955
35	0xbd4e24ee	-0.050328188
36	0x3be57755	0.007002751
37	0x3d82f246	0.06393866
38	0xbdee4ca6	-0.11635713
39	0xbc810cb7	-0.015753133
40	0xbe1da6c7	-0.15395652
41	0xbdcaa206	-0.09894185
42	0x3d44f16a	0.048081793
43	0xbb9e8d4c	-0.0048386212
44	0xbd1dbe41	-0.03851152
45	0xbcd1ce04	-0.025610931
46	0xbda79dfe	-0.081844315
47	0xbe81c07e	-0.25342172
48	0x3e341f41	0.17590047
49	0xbe808591	-0.25101903
50	0x3ded73e6	0.115943715
51	0xbd8224cc	-0.06354675
52	0x3bd2ec0e	0.0064368313
53	0x3ce566b4	0.028003074
54	0x3d7d2c17	0.061809625
55	0x3d7430db	0.059616905
56	0xbdccf8a0	-0.10008359
57	0xbd2ecfb5	-0.042678554
58	0x3de7d8bb	0.11320635
59	0xbd990cba	-0.074731305
60	0xbe00cd20	-0.12578249
61	0x3dc8da03	0.098072074
62	0x3e0f61e6	0.14002189
63	0xbe19224b	-0.14954488
64	0xbe1e1902	-0.15439227
65	0x3dbea81d	0.09309409
66	0x3d063539	0.0327656
67	0xbd876604	-0.06611255
68	0xbd3a238a	-0.04544405
69	0xbe0907a9	-0.13381828
70	0x3cb3ffb9	0.021972524
71	0xbc11a25c	-0.008888807
72	0xbe447a33	-0.1918724
73	0x3d3ae554	0.04562886
74	0xbc57bfb9	-0.013168269
75	0x3d824933	0.06361618
76	0x3cd7b4f6	0.026331406
77	0x3e3f2afb	0.1866874
78	0x3e02029a	0.12696305
79	0xbdcf16b7	-0.101117544
80	0x3ded867a	0.11597915
81	0xbda66ea4	-0.08126572
82	0xbcf133b6	-0.029443603
83	0xbda80717	-0.08204477
84	0xbb04ab5e	-0.0020243744
85	0xbe0d818e	-0.13818952
86	0x3e1d365b	0.15352766
87	0x3d1f3908	0.03887275
88	0xbdd5739f	-0.104224436
89	0x3dce1a63	0.100636266
90	0x3d8c3f39	0.06847996
91	0xbe77eec4	-0.24212176
92	0x3d072330	0.03299254
93	0x3d87e109	0.06634719
94	0xbd182aea	-0.0371503
95	0x3e2d3cc1	0.16917707
96	0x3d9c1db8	0.07622856
97	0x3d8cb2fd	0.06870077
98	0xbdcdf4f0	-0.10056484
99	0x3d0eb885	0.03484394
100	0xbcfb99d7	-0.030713005
101	0xbe3871b4	-0.18012124
102	0x3d38fa9f	0.045160886
103	0xbbc2af5c	-0.0059413146
104	0x3ca7f446	0.02050222
105	0x3c8aa292	0.016923223
106	0xbb83a8f9	-0.004017946
107	0xbda5da9c	-0.08098337
108	0x3de71a97	0.112843685
109	0xbe016ac9	-0.12638392
110	0x3e31c2dc	0.17359489
111	0x3e0581ec	0.13037843
112	0x3c53a14b	0.012916873
113	0xb8dc4686	-0.000105035535
114	0x3d5dba89	0.054132972
115	0x3c79f9ec	0.01525734
116	0xbdb5eaa2	-0.08882643
117	0xbd8e18e1	-0.06938339
118	0xbe154324	-0.14576393
119	0x3d840cd2	0.06447758
120	0x3db2a106	0.08722119
121	0xbd0fd13f	-0.035111662
122	0xbe0e97e2	-0.13925126
123	0xbe0d5ce9	-0.13804974
124	0x3d48a165	0.048982043
125	0xbdebe529	-0.11518318
126	0x3d984192	0.074343815
127	0x3e28357c	0.16426653
128	0x3dcf0f05	0.101102866
129	0x3cef8a7a	0.029240835
130	0xbd450031	-0.048095886
131	0x3cb4c69f	0.022067366
132	0xbdd9d011	-0.10635389
133	0xbdccf9cc	-0.100085825
134	0xbb25d303	-0.0025302775
135	0xbd874bd4	-0.0660626
136	0x3c7b2e87	0.015330917
137	0x3dbc90f5	0.09207336
138	0x3d6b8346	0.05749824
139	0xbdd6f1cc	-0.10495338
140	0xbc2753e2	-0.01021287
141	0xbd06276c	-0.03275244
142	0xbc7d692f	-0.015466972
143	0x3cc33a81	0.023831608
144	0x3c95f313	0.018304383
145	0x3e75dfa0	0.24011087
146	0x3d194f7f	0.03742933
147	0xbd507971	-0.050897066
148	0x3dd06394	0.10175243
149	0xbc009f3d	-0.007850465
150	0xbd9a1de8	-0.075252354
151	0xbdba2832	-0.09089698
152	0x3e09cd54	0.13457233
153	0x3d7f313c	0.062302813
154	0x3dd28288	0.10278803
155	0xbdee5ac2	-0.116384044
156	0x3dd322b7	0.10309356
157	0x3cc48291	0.02398804
158	0x3c787e18	0.015166782
159	0x3d3dbed2	0.04632456
160	0xbd663255	-0.056200344
161	0xbda61201	-0.08108903
162	0x3caa9203	0.020821577
163	0xbe76bd85	-0.24095733
164	0x3e011302	0.12604907
165	0x3c46bc6f	0.012129887
166	0xbe1402d8	-0.1445421
167	0x3e07131d	0.13190885
168	0x3e2d8ec1	0.16948988
169	0xbe3654b7	-0.17805754
170	0x3dcf20d8	0.10113686
171	0x3e1260c5	0.14294727
172	0xbde0f583	-0.10984328
173	0x3e139e63	0.14415888
174	0x3cca01fa	0.024659146
175	0x3bc16e2b	0.0059030256
176	0xbce568b2	-0.028004024
177	0xbdacade2	-0.08431603
178	0xbd0c32d1	-0.03422815
179	0x3a94364b	0.0011307684
180	0xbdb36f83	-0.087615035
181	0xbd339c83	-0.043850433
182	0xbcab68b7	-0.020923955
183	0xbd3d0829	-0.04615036
184	0xbe52cef0	-0.20586753
185	0x3ca20156	0.019776028
186	0xbe1307ae	-0.14358398
187	0x3d80db5b	0.06291839
188	0x3e47a274	0.19495565
189	0xbe300499	-0.17189254
190	0xbd7b3de8	-0.061338335
191	0xbdc6d56a	-0.09708674
192	0xbd87b5a6	-0.066264436
193	0x3ddc5b96	0.10759656
194	0xbe0d2e00	-0.13787079
195	0x3dada1c2	0.084781185
196	0x3d2e62a5	0.042574544
197	0xbcdc4920	-0.026890337
198	0x3c2f44b8	0.010697536
199	0xbde9b88d	-0.114121534
200	0xbda26c39	-0.07930798
201	0x3dad5dbb	0.08465143
202	0x3e0d7921	0.13815738
203	0xbd22e736	-0.03977128
204	0x3dee2179	0.11627478
205	0xbc8f4791	-0.01749018
206	0xbe4c4dff	-0.19951628
207	0xbc591860	-0.01325044
208	0x3d2fda82	0.042932995
209	0xbcc4984a	-0.023998398
210	0x3e06abd0	0.13151479
211	0xbe048cb2	-0.12944296
212	0xbcf9e947	-0.030506743
213	0x3d0e3794	0.034720972
214	0xbdf0860e	-0.11744319
215	0xbd2e39df	-0.04253566
216	0xbd4b5434	-0.04964085
217	0xbc4fa2e2	-0.012673112
218	0x3dbd562b	0.09244951
219	0xbe4fa60a	-0.20278183
220	0xbe0a6686	-0.13515672
221	0xbe107282	-0.14106181
222	0x3c37e385	0.0112236785
223	0x3d922e1b	0.071377
224	0x3dfe8dab	0.12429365
225	0x3b037d63	0.002006375
226	0xbd65d9d2	-0.056115933
227	0xbdc78a1a	-0.09743138
228	0x3d817ad0	0.06322253
229	0xbced75ce	-0.028986838
230	0x3caa1ed8	0.02076666
231	0x3e52c664	0.20583493
232	0xbd740746	-0.05957725
233	0xbd044c7d	-0.032299507
234	0xbe18dcc5	-0.14927967
235	0xbd90ebfe	-0.07076262
236	0x3c8a014c	0.016846322
237	0xbd2aab67	-0.04166737
238	0xbdbdd176	-0.09268467
239	0x3e36fb7f	0.17869376
240	0xbda4f988	-0.08055407
241	0xbe041554	-0.12898761
242	0xbd80897e	-0.062762246
243	0xbdb336ef	-0.08750712
244	0xbd8feb4f	-0.070273034
245	0xbc84022c	-0.016114317
246	0xbc9b2734	-0.018939592
247	0xbe49cb06	-0.19706354
248	0xbc93b80a	-0.018032093
249	0xbdc15436	-0.0943989
250	0xbb7f736f	-0.0038978716
251	0xbd87615c	-0.06610367
252	0x3c7b25e6	0.01532886
253	0x3e08011e	0.13281676
254	0x3c99d9e9	0.018780665
255	0xbd028cfe	-0.031872742

4.bias f4 [256]
0	0x3ac760af	0.0015211309
1	0x3ae7d104	0.0017686193
2	0x3b557836	0.0032572872
3	0x3b5b4081	0.0033455195
4	0x3af931d5	0.0019012043
5	0x3a2626ce	0.000633818
6	0xbb929fd3	-0.004474619
7	0x3b68848d	0.0035479397
8	0xbb14c993	-0.0022703155
9	0xbb1e8805	-0.002418996
10	0xba5e3faf	-0.00084781175
11	0x3b62439f	0.0034525169
12	0x3b1c567b	0.0023855257
13	0x3b5bfd0c	0.0033567576
14	0x3b4d36dc	0.0031313216
15	0xbb01f226	-0.001982817
16	0x3b40904d	0.0029382885
17	0x3b1a3d44	0.0023535052
18	0xbb386f7f	-0.0028142629
19	0xbb1754bd	-0.002309128
20	0xbb3b89c7	-0.0028616057
21	0xbb3c6bab	-0.0028750699
22	0xbb26fcd4	-0.0025480287
23	0x3b188e19	0.0023278056
24	0xba9a919c	-0.0011792663
25	0x3b130b64	0.002243721
26	0xbb31c0cc	-0.0027122973
27	0x3b41f838	0.0029597413
28	0xbb50bc75	-0.003185061
29	0xbb613408	-0.0034363288
30	0xbb47f28e	-0.0030509564
31	0xbb0d9337	-0.002160264
32	0x3b732f86	0.0037107184
33	0xbb2e8bb0	-0.0026633553
34	0x3b51219d	0.0031910904
35	0x3b5a4067	0.0033302547
36	0x3b26ceca	0.0025452846
37	0x3b24d06f	0.002514865
38	0x3b488c80	0.0030601323
39	0x3b1cbefc	0.0023917546
40	0x3a74c4be	0.0009337178
41	0x3b530220	0.0032197312
42	0x3b358b55	0.0027701457
43	0xba79aeac	-0.00095246243
44	0x3b2b37c8	0.0026125778
45	0xbb169deb	-0.002298231
46	0x3b37cd52	0.0028045964
47	0xbb0acb2b	-0.0021178226
48	0x3b0d0b56	0.002152165
49	0x3b071c8f	0.0020616387
50	0x3b2b9608	0.0026181955
51	0xbb13fd77	-0.0022581497
52	0xbb09cd72	-0.0021026996
53	0xbb1c8db7	-0.002388818
54	0xbb558055	-0.0032577713
55	0xbb2e39f6	-0.002658484
56	0x3b66ce08	0.003521802
57	0x3afa1f49	0.001908281
58	0x3b424279	0.0029641672
59	0x3b39d629	0.002835641
60	0xbafdbf9e	-0.0019359475
61	0xbb1339dd	-0.002246491
62	0xbade72e3	-0.0016971495
63	0xbb0ea16c	-0.0021763695
64	0xbb35c032	-0.0027732966
65	0x3b67b1a6	0.003535369
66	0x3a8158dc	0.0009868401
67	0x3b3dd6e8	0.0028967205
68	0x3b49765c	0.0030740714
69	0x3a80917e	0.0009808985
70	0x3b9422a4	0.004520731
71	0x3b29a513	0.0025885745
72	0xb9a99705	-0.0003234671
73	0x3b53af7f	0.0032300649
74	0xba4cc48f	-0.0007811272
75	0xbaf813cc	-0.0018926798
76	0x3aff34f8	0.0019470742
77	0x3b4b05fa	0.0030978904
78	0x3b74b5f4	0.0037339898
79	0x39e2d15f	0.00043262073
80	0xbb53dc06	-0.003232719
81	0x3b177a09	0.002311351
82	0xbaa97358	-0.0012928052
83	0x3b1d642e	0.002401601
84	0x3b3d6804	0.002890111
85	0xbb131a22	-0.0022445996
86	0xba8cf6d2	-0.001075471
87	0x3b43336e	0.0029785293
88	0xbb123c0d	-0.0022313625
89	0xbb5e7a05	-0.003394724
90	0x3aca26e9	0.0015422973
91	0xbb3cdcbe	-0.0028818096
92	0xbb2b75dc	-0.002616278
93	0xbb1e113c	-0.002411916
94	0xba975692	-0.0011546186
95	0xba802bd1	-0.0009778683
96	0x3b35bb64	0.0027730102
97	0xbb296029	-0.002584467
98	0xbb61877c	-0.003441303
99	0x3b2b5977	0.0026145854
100	0x3b772e71	0.003771689
101	0x3b4170e5	0.0029516753
102	0xbb05f659	-0.0020441024
103	0x3b75fcb1	0.003753465
104	0x3b24feb2	0.0025176224
105	0xba8c400d	-0.0010700241
106	0x388fb685	6.852768e-05
107	0x3a51b425	0.0007999561
108	0x3ae92c53	0.0017789699
109	0xbb04866a	-0.0020221719
110	0xbb265248	-0.0025378633
111	0xb9d4d37b	-0.00040593356
112	0xbb09f456	-0.0021050177
113	0xbb68aad7	-0.003550222
114	0xbb542af2	-0.003237423
115	0x3b408ec7	0.0029381977
116	0x3b510374	0.0031892927
117	0x3b1f075c	0.002426586
118	0xbb440e32	-0.0029915688
119	0xba971658	-0.0011527045
120	0x3a0f4974	0.00054659625
121	0x3b2d45a2	0.002643921
122	0xbaf4c35f	-0.0018673948
123	0xbb2e83d1	-0.0026628862
124	0x3b56ad87	0.003275724
125	0xbb2704ba	-0.0025484995
126	0xbb44a447	-0.0030005143
127	0x3b2394e6	0.0024960577
128	0x3b0c3997	0.002139663
129	0x3a952a01	0.0011380316
130	0x3b12d1af	0.0022402813
131	0xbb04dbf3	-0.0020272702
132	0x3b6bb2e6	0.0035964786
133	0xbb1f6ebc	-0.0024327477
134	0x3b1ee8ef	0.0024247726
135	0x3b060d11	0.0020454566
136	0x3b4b0bd6	0.0030982397
137	0xb8c093a9	-9.182777e-05
138	0x3afea842	0.0019428807
139	0x3b184284	0.0023233006
140	0xbb15189d	-0.0022750266
141	0xbb12148f	-0.0022290086
142	0xbb3ed143	-0.002911643
143	0xbb399b4a	-0.002832132
144	0xbb18215c	-0.0023213243
145	0x3b0c843d	0.0021441125
146	0xba8d08e9	-0.0010760102
147	0x3b4f5004	0.0031633386
148	0x3b4d2039	0.0031299724
149	0xbacc509f	-0.0015587992
150	0x3b2bb262	0.0026198854
151	0x3b0a0dbe	0.002106532
152	0x3aac5c77	0.0013150115
153	0x3b55fe39	0.003265275
154	0x3b5b1b28	0.0033432934
155	0x3b4719a7	0.003038028
156	0x381ce0df	3.7402726e-05
157	0xbadd0b3b	-0.0016864309
158	0xb99f1dd9	-0.00030349081
159	0xbb2c4db6	-0.0026291437
160	0x3b3a3196	0.0028410903
161	0x3b3c085a	0.0028691501
162	0x3b41be88	0.0029563028
163	0x3b3ad173	0.002850619
164	0x3b5bd756	0.0033545098
165	0x3b5858df	0.0033011956
166	0xbb15954b	-0.0022824581
167	0x397d99e5	0.0002418529
168	0x3b5b4b22	0.003346153
169	0xbb1b5ca7	-0.0023706348
170	0xba99ab6b	-0.001172406
171	0x3b2fc887	0.0026822404
172	0x39b7d71e	0.00035064755
173	0x3b697ba7	0.003562668
174	0x3b5e9144	0.0033961097
175	0x3b8d5d5f	0.004314109
176	0xb9a69103	-0.0003177003
177	0xbb319384	-0.0027095983
178	0xbb3f4fed	-0.0029191927
179	0x3b3c647d	0.002874642
180	0xbab95599	-0.001413989
181	0xbb1b950d	-0.0023739964
182	0xbb1ac400	-0.002361536
183	0x3b26c458	0.002544662
184	0x3a49fafa	0.000770494
185	0xbb12b01d	-0.0022382804
186	0xbaf7a68a	-0.0018894237
187	0xbb23a0f5	-0.0024967764
188	0x3b5533a2	0.0032531996
189	0x3b3d5cd9	0.0028894453
190	0xbb27cca9	-0.0025604165
191	0xbb299a92	-0.0025879485
192	0xbb1907ff	-0.0023350713
193	0x3b3fa19e	0.0029240618
194	0xb9f57f83	-0.00046825045
195	0x3a6d2cb8	0.0009047496
196	0x3b6d8fe1	0.0036249089
197	0x3b13b9d3	0.002254118
198	0xbb13df67	-0.0022563578
199	0x3b3b6c14	0.0028598355
200	0x3ad77ecb	0.0016440985
201	0x3b750b58	0.0037390795
202	0xbb4a46a7	-0.0030864866
203	0x3b25a3fd	0.0025274747
204	0x3b367f48	0.0027846862
205	0xbb4eea81	-0.003157288
206	0x3b3be73f	0.002867177
207	0x3b476607	0.0030425803
208	0xbb49422a	-0.0030709603
209	0x3a0a61c0	0.0005278848
210	0xba91138c	-0.0011068447
211	0x3b640baa	0.0034796991
212	0xbb43ed52	-0.0029896093
213	0xbb44cbdc	-0.0030028736
214	0xba472df2	-0.0007598094
215	0xbb1ef9f1	-0.0024257863
216	0x3b42263c	0.002962484
217	0x3b45e934	0.0030198814
218	0xbab5b3dd	-0.0013862808
219	0x3b112b81	0.0022151174
220	0x3b3c19ff	0.0028702018
221	0xb9d7c7f0	-0.0004115696
222	0x3b752fe3	0.0037412576
223	0xbb2ba1fe	-0.0026189084
224	0x3b402d46	0.002932386
225	0x3b4803aa	0.0030519762
226	0xbb387fde	-0.0028152387
227	0x3b2633a4	0.002536037
228	0x3b5145de	0.0031932513
229	0xb900c5d7	-0.00012280732
230	0xbb1d5da5	-0.0024012115
231	0xbb3167ae	-0.0027069855
232	0x3b319022	0.0027093966
233	0xbb30ddfc	-0.0026987782
234	0xbb56d4cb	-0.0032780643
235	0xbb0d847b	-0.0021593857
236	0xbacbcf27	-0.0015549407
237	0x3b34d374	0.0027591856
238	0xbb0bc5b5	-0.002132756
239	0xbb39c3fb	-0.0028345573
240	0xbb34fc26	-0.0027616112
241	0x3b1b9bbc	0.0023743948
242	0x3b655e79	0.0034998937
243	0x3b55b882	0.0032611196
244	0x3b251ab2	0.0025192914
245	0xbb1ba382	-0.0023748581
246	0x3b33d8a2	0.0027442356
247	0xbb176ba3	-0.0023104928
248	0xbb451d09	-0.003007712
249	0xbb03d49c	-0.0020115739
250	0xbb39d73f	-0.0028357056
251	0x3b486a30	0.003058087
252	0xbb405f2f	-0.002935361
253	0x3b5eaa89	0.0033976159
254	0x3b020204	0.0019837627
255	0x3b2bfbf5	0.0026242707

alpha.weight f4 [2, 256]
0	0xbcda44f0	-0.0266442
1	0x3c7a0b08	0.015261419
2	0xbb8132e1	-0.003942833
3	0x3b236807	0.0024933831
4	0xbba727e3	-0.0051011904
5	0x3abc4814	0.0014364743
6	0x3aef5cf5	0.0018261956
7	0x3bba2f95	0.0056819418
8	0xbc038c80	-0.008029103
9	0xbbfca9e0	-0.0077106804
10	0x3b96c092	0.004600593
11	0x3c5e945a	0.013585174
12	0x3af4e66e	0.0018684396
13	0xbb412882	-0.0029473607
14	0x3b970fd1	0.0046100398
15	0xbbb5607b	-0.005535183
16	0x3aab527f	0.001307085
17	0x3c651a99	0.013983392
18	0xbcbc24a7	-0.022966696
19	0xbbd02dd2	-0.0063531185
20	0xbc8b41f5	-0.016999224
21	0x3b670583	0.0035251088
22	0xbbc8f9c8	-0.006133292
23	0x3bddfbc6	0.0067743985
24	0x3b805aa8	0.003917057
25	0xbbee728b	-0.007276838
26	0xbc2bf310	-0.010494962
27	0xbb3c4e3c	-0.0028733155
28	0x3bb95b61	0.005656645
29	0x3c8b95ed	0.017039264
30	0x3c62299e	0.013803868
31	0x3be6c659	0.007042688
32	0x3b4f2241	0.003160611
33	0x3a6273fc	0.0008638499
34	0xba8f3ffb	-0.0010929102
35	0x3cb3170b	0.021861574
36	0x3a9f8f25	0.0012173398
37	0xba879442	-0.0010343867
38	0x3bac4028	0.0052566715
39	0x3c9668ac	0.018360458
40	0xbc4fb1e8	-0.0126766935
41	0x3ab2f1fd	0.001365244
42	0xbcc9fbb5	-0.024656156
43	0x3bde64b7	0.0067869085
44	0x3b87f3f0	0.0041489527
45	0xbc3a12f8	-0.011357062
46	0x3bad6791	0.005291887
47	0x3c7b9b10	0.015356794
48	0x3a7fa5cd	0.0009752184
49	0x3ce36a14	0.027760543
50	0x3b47f5be	0.0030511464
51	0xbb075186	-0.0020647957
52	0xbc0cd722	-0.008596214
53	0xbb1ad57f	-0.0023625789
54	0xbc0e6476	-0.008690944
55	0x3b1b1626	0.0023664325
56	0x3c264d33	0.010150242
57	0x3c27b02c	0.010234874
58	0x3c372455	0.011178096
59	0xba9b664c	-0.0011856048
60	0x3c48fe8a	0.012267718
61	0x3aa4aaa0	0.0012563057
62	0xbb0a90d5	-0.0021143456
63	0x3bd5d695	0.0065258243
64	0xbc6f4133	-0.014602947
65	0x3b0063ac	0.001959066
66	0x3b40f684	0.002944381
67	0xb8b3e8b0	-8.5787266e-05
68	0xbc1bf077	-0.0095177805
69	0xbca453f0	-0.020059556
70	0xbbe9f7a9	-0.007140119
71	0x3bc82920	0.006108418
72	0x3c026898	0.007959507
73	0xbaf29aa6	-0.0018509224
74	0xbb3d71e9	-0.0028907007
75	0xbc03a315	-0.008034487
76	0xbc428368	-0.01187215
77	0x39f1b328	0.00046100584
78	0x3aca0fcc	0.0015416085
79	0x3b5131c7	0.0031920539
80	0x3c343bae	0.011000557
81	0xba13b8f6	-0.00056351663
82	0xbc0003ab	-0.0078133745
83	0xbbeed34c	-0.007288372
84	0x3bd6d33a	0.006555942
85	0xbbaa7acb	-0.0052026263
86	0xbc762537	-0.015023521
87	0xbce037fe	-0.02737045
88	0xbc4ea381	-0.012612225
89	0xbc964298	-0.018342301
90	0x3c86c235	0.016450027
91	0xbc748bad	-0.014925879
92	0xbc2da11b	-0.010597493
93	0x3b2f04a3	0.0026705645
94	0x3bc34b49	0.0059599024
95	0xbc2e950f	-0.0106556555
96	0xbaf5f54e	-0.0018765123
97	0xbc445bfa	-0.01198482
98	0x3b1964c1	0.0023406001
99	0xbcc91c77	-0.024549706
100	0x3b6f8935	0.0036550288
101	0x3cce0ac7	0.025151623
102	0x3c8f04a0	0.01745826
103	0x3c2b0491	0.0104381
104	0x3c64603a	0.013938958
105	0xbba291f3	-0.004961246
106	0xbc0ec66f	-0.008714302
107	0x3c3376bf	0.010953604
108	0xbc6d5c74	-0.014487375
109	0xbbf34278	-0.007423695
110	0x3ad74217	0.0016422895
111	0xbc18f9b3	-0.009336877
112	0xbb8f2199	-0.004368019
113	0x3c122834	0.008920718
114	0xbb17eba1	-0.0023181217
115	0x3c3ea1bb	0.011635239
116	0xbc87baaf	-0.01656851
117	0x3bd1b151	0.0063993116
118	0xbb9d84b3	-0.0048070787
119	0x3ba83428	0.0051331706
120	0x3bb2ecef	0.0054603736
121	0xbc22d011	-0.009937302
122	0x3c4f7812	0.012662904
123	0xbc55afe1	-0.013042421
124	0x3c422765	0.011850213
125	0xbb75f2e3	-0.0037528805
126	0xbc05706b	-0.008144478
127	0x381bdb49	3.7159105e-05
128	0x3c5814e0	0.013188571
129	0xbc76db5a	-0.015066946
130	0xbbf2bfef	-0.007408134
131	0xbb4a7fe4	-0.0030898983
132	0xbbd0ea4a	-0.0063755857
133	0x3c2e5ba6	0.010641968
134	0xbc9e7885	-0.019344578
135	0xbcbfc40e	-0.023408916
136	0x3c4e4391	0.012589351
137	0x3bf74d73	0.0075470745
138	0x3bf7590e	0.007548458
139	0xbc093143	-0.008373561
140	0xbac1fce2	-0.0014800096
141	0x3bb412d6	0.0054954095
142	0x3c110f5a	0.008853758
143	0xbca32b55	-0.019918123
144	0xbb566085	-0.0032711339
145	0x3a2613b1	0.0006335332
146	0xbbeebb0b	-0.007285481
147	0x3c23a3d7	0.009987793
148	0x3c6e6d28	0.014552392
149	0xbc6f4be5	-0.014605497
150	0xbc184bb5	-0.009295394
151	0xbb64bf77	-0.003490416
152	0x3c0c64ed	0.008568984
153	0x3c0a2bf7	0.008433334
154	0x3c7b4565	0.015336369
155	0xbc855b72	-0.016278956
156	0xbc20197a	-0.009771699
157	0xbbb04dfa	-0.0053803893
158	0xbb86189a	-0.004092288
159	0xbafdc447	-0.0019360863
160	0x3c257c06	0.01010037
161	0x3bf0d9f9	0.007350203
162	0xbc33de8f	-0.010978355
163	0x3bc55fa3	0.0060233637
164	0xbb4f63a3	-0.0031645081
165	0x3c108f6b	0.008823256
166	0x3c4b3756	0.01240333
167	0x3c3e9b9d	0.011633781
168	0x3bc31ed4	0.0059546027
169	0x3a94ab35	0.0011342528
170	0xbc4be369	-0.0124443555
171	0x3c146e15	0.009059449
172	0xbb775f4e	-0.0037746015
173	0xbc495766	-0.012288904
174	0x3bb36dca	0.0054757344
175	0x3c0f2b65	0.008738373
176	0xbc2b88e2	-0.010469647
177	0x3ca97cef	0.020689456
178	0x3ca4069e	0.020022687
179	0xbb852e31	-0.0040643443
180	0xbc9216de	-0.01783317
181	0xbc01786b	-0.007902245
182	0xbbf0324d	-0.007330215
183	0x3c218086	0.0098573025
184	0x3ad8434d	0.0016499549
185	0xbc64a63e	-0.013955651
186	0xbbfd5d81	-0.007732094
187	0xba6a4f8b	-0.00089382444
188	0x3b94f2b4	0.004545534
189	0x3c0600d4	0.008178908
190	0x3b53bae3	0.0032307438
191	0xbc3954ba	-0.011311704
192	0xbb8cd2b2	-0.004297578
193	0x3ac5c3e8	0.0015088292
194	0x3c6f79e5	0.014616464
195	0xbb1422b4	-0.0022603692
196	0x3c5d77c0	0.01351732
197	0xbc27bc7b	-0.010237808
198	0xbc0ccdf7	-0.008594028
199	0xbb1c4f1b	-0.0023850861
200	0x3b843804	0.004034998
201	0xbbbde776	-0.0057954146
202	0x3a45ab20	0.0007540453
203	0xbb95f9a4	-0.0045768786
204	0x3c739293	0.014866489
205	0xbc094874	-0.008379091
206	0xbc5a177c	-0.013311263
207	0xbc1955cf	-0.009358837
208	0x3bb6063b	0.005554942
209	0x3a5bc676	0.000838376
210	0xbba25d6f	-0.004954986
211	0xbb967981	-0.004592121
212	0xbcb2414c	-0.021759652
213	0x3bf4b8c8	0.0074683167
214	0xbbbd32a0	-0.0057738572
215	0xbc1acdf6	-0.009448519
216	0x3a75cc86	0.00093764847
217	0x3c173b9e	0.009230522
218	0x3bd3a45f	0.0064588035
219	0x3c5c4f91	0.0134467045
220	0x3c817d01	0.015806677
221	0x3c2e0c65	0.010623072
222	0x3baa735b	0.0052017397
223	0xbc82a1a6	-0.01594622
224	0x3c181749	0.009282895
225	0xbbed6402	-0.007244588
226	0xbc6861f9	-0.014183515
227	0x3bf8c3fb	0.007591722
228	0xbc49d337	-0.012318424
229	0x3b847109	0.004041795
230	0x3c13ee9e	0.009029059
231	0x3b35a81e	0.0027718614
232	0x3bc86ceb	0.0061164997
233	0xbcbf4e88	-0.023352876
234	0xbc4bad74	-0.012431491
235	0xbc87c540	-0.016573548
236	0x3a178f3b	0.0005781536
237	0xbc1407c9	-0.009035059
238	0xbba2527d	-0.004953681
239	0xbc671d97	-0.014106176
240	0x3c096006	0.00838471
241	0x3cf146f4	0.029452778
242	0xbc20ae96	-0.0098072495
243	0x3c25a1a9	0.010109344
244	0xbc76568b	-0.015035282
245	0xbb641cd2	-0.0034807217
246	0x3c62ee0b	0.013850699
247	0xba8aa16c	-0.0010576672
248	0xbb579165	-0.0032893058
249	0xbbfe7691	-0.007765599
250	0xbb053c1c	-0.0020330017
251	0x3c0dbb7b	0.008650656
252	0xbc69c654	-0.0142684765
253	0x3ca6aac8	0.020345107
254	0x3be47e92	0.006973096
255	0x3b81f6fb	0.00396621

alpha.bias f4 [2]
0	0x3b37f6ca	0.0028070682
1	0xba218de5	-0.00061628065
